src/estimator/epochs300_layers6_dim128_actELU_lr5e-04.pt (torch, 343673 bytes, 13 tensors)

model.0.weight f4 [128, 12]
000000 65 be 8d be d6 c2 d0 3d 6d 2f 4e be 8a c8 53 be
       -0.27684322 0.10193412 -0.20135279 -0.20681968
000010 36 a5 f9 3c 0d 36 82 3e 49 e6 0b be 31 c5 5a be
       0.030474287 0.25431862 -0.13662066 -0.21364285
000020 40 14 51 bd 43 94 96 be a3 2a 8f be 4a 6b 8d 3e
       -0.051044703 -0.2940999 -0.27962217 0.27620918
000030 ea 93 57 3d b4 5f 78 be 7f 29 87 3d 10 b8 08 be
       0.052631296 -0.24255258 0.065997116 -0.13351464
000040 c4 43 84 3d 2d db 96 be 1a d0 13 be e9 5f 8b 3e
       0.06458238 -0.29464093 -0.14434853 0.2722161
000050 35 2f 82 3e a8 36 ac bd 69 f7 aa bc d4 3d da be
       0.2542664 -0.08408862 -0.020869927 -0.42625296
000060 6b 2f 08 c0 1d 8e a8 bd 1f 54 46 bd ac e8 da 3d
       -2.1278942 -0.08230231 -0.048420068 0.1068891
000070 56 a1 45 40 9a a7 85 c0 51 36 7e 40 a7 28 39 c0
       3.0879722 -4.176709 3.9720652 -2.8931062
000080 d2 a0 db be f3 98 46 40 95 71 44 c0 07 d6 84 c0
       -0.42896134 3.1030853 -3.0694325 -4.1511264
000090 d9 4d 39 3e a8 56 60 be 3b 85 04 3e 78 6d 45 be
       0.18096103 -0.21908057 0.12941448 -0.1928004
0000a0 27 3a 3f be 9c da 29 3e 46 4b fc bc ae 49 9e 3d
       -0.18674527 0.16587299 -0.030797612 0.07728897
0000b0 0f 42 91 bd f9 66 48 bd 51 26 9e 3b e1 1f 85 be
       -0.07092678 -0.048926327 0.004826345 -0.26000884
0000c0 1e 79 60 be c4 16 58 3e 64 73 8c be a5 57 87 3e
       -0.21921203 0.21102434 -0.27431786 0.26434055
0000d0 c5 f0 6f 3f ba 32 37 3f f8 74 10 40 f7 97 4d 3e
       0.9372676 0.7156178 2.2571392 0.20077501
0000e0 d8 aa e6 40 13 9e 5f c0 66 d4 24 c0 21 39 ca bf
       7.208355 -3.494023 -2.5754638 -1.5798684
0000f0 80 55 da bf a3 98 85 be 59 4b 49 3e 92 73 b8 bc
       -1.7057343 -0.26093015 0.19657649 -0.022516046
000100 33 21 f8 3f be 11 30 c0 b1 4c d0 3f cf 01 74 c0
       1.9385132 -2.751083 1.6273404 -3.8126104
000110 af e6 19 c0 3c 43 4d be 7e 0f c4 bf 8b 2a 16 c0
       -2.4047048 -0.20045179 -1.5317228 -2.3463466
000120 33 ea e8 bd 93 5c a7 3d 70 82 e8 be 75 22 1b 3e
       -0.11372795 0.08171954 -0.45412016 0.15149863
000130 2f 29 81 3f 93 11 d7 c0 3d 9e c5 40 2a 81 2e c0
       1.0090693 -6.7208953 6.175566 -2.7266335
000140 30 07 5e 40 e9 12 90 bf 94 4a ce bf a6 3b 87 bf
       3.4691887 -1.1255771 -1.611651 -1.0565078
000150 7b 18 2e be 36 0a 45 3e 83 e9 4f be bf 76 ce 3d
       -0.17001526 0.19242176 -0.20303921 0.10081243
000160 a0 6f c1 3f 32 7d 06 40 a2 3c 34 bb 64 a7 85 3f
       1.511219 2.1013913 -0.002750196 1.0441709
000170 1b bb dc 40 f5 9d 8d c0 26 6f 87 c0 19 41 97 bf
       6.89784 -4.425532 -4.232318 -1.1816741
000180 cb 0d d2 bc 5d bf 91 bc 5e b0 9d bd 37 b9 de 3d
       -0.025641343 -0.017791444 -0.07699655 0.10875171
000190 22 3c 11 be 4f 9d 85 3e ac 18 b4 40 09 28 b3 3e
       -0.14183095 0.2609658 5.6280117 0.34991482
0001a0 11 35 ba 40 31 07 1c c0 d2 e0 59 c0 30 bc 90 c0
       5.818978 -2.437939 -3.404347 -4.522972
0001b0 bb bd 3e be 61 cb cb be fe c9 ff 3d 32 8a 2d be
       -0.18627064 -0.39803603 0.12489699 -0.16947249
0001c0 1c 7f 0e 3c 35 02 41 be 18 e9 a3 be b1 0c 70 bd
       0.008697297 -0.18848498 -0.32013774 -0.058605853
0001d0 06 f5 5d be b4 e5 89 be 28 51 80 be d0 ca c6 be
       -0.216755 -0.26933062 -0.25061917 -0.3882661
0001e0 4d bc 2c bc 03 e7 86 3c bf 7c 20 3e 4e 0a ad be
       -0.010542941 0.016467577 0.15672587 -0.33796924
0001f0 45 2a 8c bf 3a 79 b6 bf f5 95 3b 3e a2 43 e3 bf
       -1.09504 -1.4255745 0.18318923 -1.7755015
000200 92 ee b9 c0 19 40 5b 40 eb c1 4b 40 3c 5d 82 be
       -5.8103724 3.4257872 3.1837108 -0.25461757
000210 a9 81 e5 bd 6e a4 c9 3d e9 ce ac 3e 61 93 57 be
       -0.11206371 0.098458156 0.3375161 -0.21052314
000220 30 70 5c 3f 63 05 3e 40 53 a7 77 c0 0b 54 f8 bf
       0.86108685 2.9690788 -3.8695877 -1.9400648
000230 dc 6f af c0 90 13 5e 3f 89 c4 b5 bf c9 54 2b 3f
       -5.4824047 0.867486 -1.4200603 0.66926247
000240 a3 1f 67 be 2d b0 82 3e 01 30 de bd c4 8e 00 3a
       -0.22570662 0.25525036 -0.10849 0.0004904086
000250 15 95 66 c0 68 fa ef c0 48 7f 28 40 69 07 87 c0
       -3.6028492 -7.499317 2.6327686 -4.2196546
000260 b9 f8 0b c0 84 d5 b6 40 29 3d 80 40 85 6e 7b bf
       -2.1870558 5.713564 4.007466 -0.98215514
000270 2c c2 05 3e 64 dc f6 bd e4 f1 9c 3e 2a 26 80 be
       0.13062352 -0.12053755 0.30653298 -0.25029117
000280 e5 9a f1 be 65 dc 3f bf ee 10 fe bf 5a 0d 3f bf
       -0.47188488 -0.7494567 -1.9848917 -0.7462975
000290 56 73 c8 c0 b1 28 4e 40 98 af 4b 40 ba ab d6 3e
       -6.264079 3.2212336 3.1825924 0.41927892
0002a0 8e bb 5b 3d 99 b6 8b bd 4d ca 6b be 92 64 99 3e
       0.053645663 -0.06821937 -0.2302639 0.29959542
0002b0 20 79 93 3f 2f 7f 05 40 16 4e 09 3e 5d 51 be 3f
       1.152134 2.0858877 0.13408694 1.486858
0002c0 91 9f b7 40 dd 83 a9 c0 51 81 8b c0 b5 d4 cd bf
       5.7382283 -5.2973466 -4.3595357 -1.6080538
0002d0 9f 02 fa 3d b5 47 cc be 59 6f 19 3e 44 95 43 be
       0.12207531 -0.39898458 0.14983882 -0.19099909
0002e0 6c 1d ac 3d 5f 8a 99 bd bf 25 01 3e 2d e2 a3 3d
       0.08404049 -0.07497095 0.12612055 0.08002124
0002f0 1a 6e 79 3e 4b 25 15 3e c7 42 a3 bd f3 a0 9d bd
       0.24358407 0.14565007 -0.07971721 -0.07696714
000300 58 2d 9d bd be 61 34 3d b8 97 c8 3d 6c 36 51 bd
       -0.07674664 0.044038527 0.09794563 -0.05107729
000310 4a 93 27 40 16 c8 10 40 f3 70 a2 c0 f1 47 1c bf
       2.6183648 2.2622123 -5.0762877 -0.61047274
000320 54 c8 d3 bf a9 2e 43 c0 52 d0 24 c0 b6 e5 13 40
       -1.654551 -3.049723 -2.5752149 2.3108954
000330 49 c9 85 3d af 56 0f be da 25 12 be ea ee 5f 3e
       0.06532533 -0.13997911 -0.14272252 0.21868482
000340 5d 28 20 40 1f 61 15 40 5b 4d 16 c0 93 56 c8 3f
       2.5024636 2.3340528 -2.3484714 1.565142
000350 5d a0 b4 3f 81 01 64 c0 39 3c 70 c0 ec 0e eb 3d
       1.4111439 -3.5625918 -3.7536757 0.114774555
000360 27 13 e6 bd a9 ac 5a be 99 0c 43 be 7f 85 d1 bb
       -0.11234122 -0.21354927 -0.19047774 -0.006394088
000370 a2 ac 36 3e cf 8c ed 3d 6c d9 13 3d 15 f8 57 3e
       0.17839292 0.11599123 0.03609602 0.2109073
000380 b8 d9 01 3e a3 2a 12 be df 8b 45 3e cf 94 5a be
       0.1268071 -0.14274077 0.19291638 -0.21345828
000390 01 fd 87 bd 35 d5 67 3d 9c 7a 64 be 6e 77 68 3e
       -0.066400535 0.056599814 -0.22312397 0.22701809
0003a0 83 41 31 3f c4 e6 03 3e e0 9d 9b 40 c0 52 93 3f
       0.6924059 0.12880999 4.863022 1.1509628
0003b0 f2 51 00 41 84 30 54 c0 fd 4e 13 c0 4d 45 17 c0
       8.020006 -3.3154612 -2.301696 -2.3636048
0003c0 65 ea 55 3e b4 41 93 be ee 11 d9 3c 06 0c c1 bd
       0.20890196 -0.28761065 0.026497807 -0.094261214
0003d0 55 cd d1 3e 25 69 90 be 52 9a 37 be 67 b3 c7 bc
       0.40976968 -0.2820522 -0.17929962 -0.024377538
0003e0 17 55 85 be d5 e6 a8 3d 10 1f 80 bc bd ff 52 3d
       -0.2604148 0.08247153 -0.015639812 0.051513422
0003f0 4e 73 8c be 29 a3 b0 3b 0a 14 75 be 5d 5a 98 bd
       -0.2743172 0.005390544 -0.23933426 -0.074391104

model.0.bias f4 [128]
000000 88 90 09 3e fe 0e 2f 3e ec fa 79 3c b7 29 49 3d
       0.1343404 0.17095563 0.015257578 0.049112048
000010 0b 75 90 be fb e4 0e bf e1 bf 9b bd 5c 25 0b bf
       -0.28214297 -0.55818146 -0.07604957 -0.5435388
000020 59 9f ef be eb a8 e9 3c d3 fa c5 3d a4 cd a5 3d
       -0.4680126 0.02852293 0.096669815 0.080958635
000030 1b e6 1f 3c dc 07 82 3e 56 f9 17 bf a5 9d b9 3d
       0.009759451 0.2539662 -0.5936483 0.090632714
000040 2b d1 1c bf cc bc b7 bd d7 78 72 3e 2f c3 ca be
       -0.61256665 -0.08971557 0.23678909 -0.39602038
000050 53 79 7d bd 97 67 d7 3b 4e 23 da bc 87 78 b0 be
       -0.061883282 0.006573628 -0.026628163 -0.34466955
000060 9d 4f e8 3d 6e 75 1b bf c9 66 ba 3e 7d 8b 86 be
       0.1134331 -0.6072606 0.36406544 -0.26278296
000070 a9 98 a2 be e2 3a 16 be 16 54 de 3b 70 c0 85 bd
       -0.31757095 -0.146709 0.006784926 -0.06530845
000080 96 2e 94 be 2a e1 bd 3e 69 fd 0a 3f 5d 3e e6 be
       -0.28941792 0.3708585 0.54292923 -0.44969454
000090 0d 07 19 3d 7f f7 74 bc 61 b4 09 bf 4c 06 7f 3e
       0.03736024 -0.014951586 -0.5379086 0.24904746
0000a0 fb 1e 04 3d 39 df 9b be 93 da bb bd a5 87 f9 be
       0.032256108 -0.30443743 -0.09172549 -0.487363
0000b0 93 94 91 3d f8 78 2f 3e 03 1e ad bd 10 3d 7c 3d
       0.071084164 0.1713599 -0.0845299 0.06158167
0000c0 82 13 12 3e 07 2c 4f 3e df f7 16 bf d9 ba 0f bf
       0.14265254 0.20231639 -0.5897197 -0.5614448
0000d0 62 64 8c be 86 e9 dd 3c ec 81 89 3e 53 62 22 bf
       -0.27420336 0.027088892 0.26856935 -0.6343128
0000e0 6f 08 53 3e 9a 97 a2 3e a5 7c 9e be 62 2a 45 bf
       0.20608686 0.31756288 -0.3095447 -0.77017796
0000f0 57 88 de bd aa d6 bf bd 9c 77 c9 be 2d 1e 0d be
       -0.108658485 -0.09367116 -0.39349067 -0.13781042
000100 ff 3e fb be c1 00 1c bf 3a c3 9f be 59 96 09 bf
       -0.490715 -0.6093865 -0.31203634 -0.5374504
000110 8b 3b e5 3c 4b 16 f5 3e 84 fd 52 be 77 c7 a0 be
       0.027982494 0.4786857 -0.20604521 -0.3140218
000120 a4 4d fa be 0e ba 3f be 08 5b 9f bd d6 9a 04 bf
       -0.4888736 -0.18723318 -0.07781035 -0.5179876
000130 8b 15 fa be 70 e6 1f bd 3e 37 05 be 01 c8 82 bd
       -0.4884456 -0.03903812 -0.13009354 -0.06385804
000140 66 da 70 be b9 86 3d 3e 2a 85 b7 3d a4 44 91 be
       -0.23520812 0.18508424 0.08960946 -0.2837268
000150 b9 ec 28 be 88 a9 ca bd 15 92 08 be e2 e8 98 3d
       -0.16496553 -0.09895617 -0.13336976 0.07466294
000160 1f 9a 85 3d 19 66 f0 be 92 c5 83 be 18 11 74 3e
       0.06523537 -0.46952894 -0.25736672 0.23834646
000170 a6 d2 91 3e fc 96 d4 3d 13 86 97 3e 5e be 05 be
       0.28481025 0.103803605 0.29594478 -0.130609
000180 38 e1 39 bd b0 e1 bf 3d 8c 32 01 bf 17 6e a1 be
       -0.0453808 0.09369218 -0.50467753 -0.31529304
000190 b6 24 4d 3c 9c 81 49 bf 9b 62 0a be de 0a 61 bd
       0.01252096 -0.78713393 -0.13514178 -0.054942004
0001a0 da 33 ff be 22 44 d3 bc 16 92 2c bd c9 65 16 3e
       -0.49844247 -0.025789324 -0.042131506 0.14687265
0001b0 de 0c e4 3d 5f ee 9b 3e fb 6b fa bc 1a 57 90 be
       0.11135267 0.304553 -0.030569067 -0.28191453
0001c0 e2 73 4b be c5 b1 c4 bd 70 e5 27 be 2e fa 1d bd
       -0.19868425 -0.09604219 -0.16396117 -0.038568668
0001d0 c5 e2 8b be 39 86 4f be 26 72 17 be c1 8d 6f be
       -0.2732145 -0.20266046 -0.14789638 -0.23393919
0001e0 d2 45 47 3e 27 c2 00 be ac 9f 9d be 78 08 3f bf
       0.19460228 -0.12574063 -0.30785882 -0.746223
0001f0 fa 63 33 bf fd a6 0d 3f 9d ae 11 be 5b 63 38 bc
       -0.7007443 0.5533293 -0.14226766 -0.011254157

model.2.weight f4 [128, 128]
000000 d9 c8 5c bb 64 12 0b bc 78 a2 58 3d 05 89 9b 3c
       -0.003368905 -0.008488271 0.052889317 0.018986234
000010 d6 3f 47 bd f2 2e 1f 3d f2 c2 1b 3d c7 c9 da bb
       -0.048644863 0.03886313 0.03802771 -0.0066768858
000020 15 9e 78 bd a3 ec d8 bc d6 6c 70 bc d3 92 63 3d
       -0.060697634 -0.026480025 -0.014674386 0.055559944
000030 70 82 5f bb 01 e4 7f 3d 42 59 c7 bd e0 db a9 bc
       -0.0034104846 0.0624733 -0.097338215 -0.020734727
000040 de 86 20 bd 7c 57 7a bd 27 88 86 3d 39 62 61 bc
       -0.03919112 -0.061118588 0.06568938 -0.013756328
000050 e6 5a 41 bc 8c 37 72 bc eb 55 fb 3b 9c b2 99 3c
       -0.011801457 -0.014783751 0.0076701543 0.018761925
000060 13 e9 31 bc e7 89 67 bd 69 76 4b 3b e3 96 dd bc
       -0.010858792 -0.056528 0.003104592 -0.027049487
000070 01 2d cb bc da 6d e0 bd 8c 57 4b 3c f3 25 89 bd
       -0.024801733 -0.109584525 0.0124110095 -0.06696691
000080 07 c3 8a 3a 00 94 30 bd bb f9 4e bd df 19 2c bd
       0.0010586687 -0.043109894 -0.05053113 -0.04201686
000090 d0 8f 3b 3d a6 09 b7 3d 05 c6 fd bd 4a d4 33 3d
       0.045791447 0.08937387 -0.12391285 0.043903627
0000a0 b0 cb 32 3d ae 19 6c 3d c8 d7 f9 3c 63 a4 95 bb
       0.043651283 0.057641678 0.0304984 -0.0045667156
0000b0 28 47 4d 3c aa dc 11 bb 68 0a 9e 3d 0b d4 07 3b
       0.012529172 -0.002225677 0.077168286 0.0020725753
0000c0 b2 53 38 3d d2 7a 99 3c c7 0d 82 bd 1b 72 ff bd
       0.045001693 0.018735323 -0.06350284 -0.12472936
0000d0 01 aa 97 3d ab ee b2 3d bf b6 2d 3b 01 d1 4c bd
       0.074054725 0.087369286 0.002650663 -0.05000401
0000e0 b3 94 7e 3d ef bc 15 3d cf 05 8c 3d 91 e9 ab bd
       0.06215353 0.036557134 0.068370454 -0.08394159
0000f0 db 3e 94 bd e6 37 57 3d c5 f0 3a bd dd 28 dc bc
       -0.07238551 0.052543543 -0.045639772 -0.026874954
000100 8c fd cb bd 9d 8c b6 bd b0 36 65 bd ef 40 86 3d
       -0.099604696 -0.089135386 -0.055960357 0.06555354
000110 f1 26 20 3c f1 a6 ee bc 49 1c ac bb 4b 14 c8 bd
       0.009774909 -0.029132338 -0.0052523953 -0.097694956
000120 1e f9 98 3d 9e ac 51 bd 5e 8f 95 3d 1d 6d 9f bd
       0.0746939 -0.05119001 0.07302736 -0.077844836
000130 a6 a4 ac bd 29 9d 9d bd b5 2b d1 bc 6d 54 5b 3d
       -0.08429842 -0.076959915 -0.025533536 0.05354731
000140 14 43 1f 3d 3c a7 46 bc 3d c4 33 3d 61 ec 9c bd
       0.03888233 -0.012124833 0.04388832 -0.07662273
000150 51 cf 83 3d af c5 62 bd 41 4f 46 bd 7e ed 93 bc
       0.06436027 -0.055364307 -0.048415426 -0.018057581
000160 42 16 82 3d 5c fa a4 3c b9 68 a3 3a 35 32 99 3d
       0.063519016 0.020138912 0.0012467123 0.07480279
000170 f6 ba a6 3d 53 60 b4 3d cc 41 75 bc d2 1b 45 3a
       0.08141129 0.08807435 -0.0149693005 0.0007519099
000180 ef 37 0d 3d 91 07 d8 bc db 9b e0 bc a1 1d 29 bd
       0.03447717 -0.026370795 -0.027418068 -0.041288022
000190 7f a0 8a bd 55 29 01 3d d0 1a a4 3c 84 e9 69 bd
       -0.067688935 0.031533558 0.020032316 -0.057107463
0001a0 79 75 9c bd b4 b9 e7 bc 9a 99 e3 3c 79 51 38 3d
       -0.07639594 -0.028286792 0.027783204 0.044999573
0001b0 b4 97 77 bd cc d6 b1 bd e9 9e ce 3a 16 01 a0 bc
       -0.06044741 -0.086835474 0.0015763912 -0.019531768
0001c0 d3 f6 2f b9 97 fd e8 bc 7d f5 2a bd ed 33 9d bd
       -0.0001678125 -0.028441234 -0.041738022 -0.0767592
0001d0 00 35 c7 bb 0f 92 a3 bd e6 95 d1 bc 18 32 1f 3d
       -0.006079316 -0.07986843 -0.025584172 0.038866132
0001e0 d8 fe 5a 3d a3 1f a5 bc b8 9e 76 bd 44 35 d0 bd
       0.053465694 -0.020156687 -0.06020996 -0.101664096
0001f0 1f c4 a4 bd d2 eb c4 bc 3b 41 d9 3c da 02 96 3d
       -0.0804522 -0.02403823 0.026520362 0.07324763
000200 53 9b 19 3d 6b e2 bd 3b 85 f6 b4 3c 6a ff 63 3d
       0.037501644 0.0057948134 0.022090206 0.055663504
000210 e6 5e d5 bd 5f 3c 54 bd d9 0f c3 bd 47 a8 68 bd
       -0.10418491 -0.051815387 -0.09524507 -0.056801107
000220 30 54 12 bd ea 00 fd 3c e2 d8 92 3c a4 6a 19 bd
       -0.03572482 0.030884225 0.017925683 -0.037455216
000230 69 df 74 3d e5 82 a4 3c f2 3a 53 bd 08 f8 ce bc
       0.059783373 0.020081947 -0.051569887 -0.025264755
000240 81 57 e4 bb d0 57 1b 3d 5f 89 78 3d b8 22 ad bd
       -0.006968439 0.03792554 0.060677882 -0.08453888
000250 c5 26 86 bd a3 85 64 bd fc c5 19 3d 9a 45 89 3c
       -0.065503635 -0.05579151 0.03754233 0.016756821
000260 45 73 a9 3b ec e2 00 be 15 8c 7e 3b 3d 17 7d 3d
       0.005171212 -0.12586564 0.003884082 0.06178974
000270 24 41 c2 bc a1 c5 fa bc 4a 6d 2b bd 5c 97 94 3d
       -0.023712702 -0.030611815 -0.041852273 0.07255432
000280 8d 1f cb bd b6 4a 92 3d 43 97 a7 bc b0 95 ad bd
       -0.09918127 0.07143156 -0.02045787 -0.08475816
000290 08 49 66 3c b8 0f 42 3d 1f 8b 33 bb be c1 a7 3d
       0.014055498 0.04737827 -0.0027396155 0.0819125
0002a0 95 35 e3 bb 1e 53 b0 bb e0 65 cd bc 87 7d 3d bd
       -0.0069338777 -0.005381002 -0.025072992 -0.04626229
0002b0 dd ad b9 bd af 9e 30 bd 5c d7 26 3d 81 34 56 3d
       -0.09066365 -0.043120082 0.040732726 0.052296165
0002c0 38 bb c0 bd 93 ac 04 3d 48 a2 cd 3d 63 df dc bc
       -0.09410709 0.032391142 0.10040718 -0.026961988
0002d0 c6 8e 88 3d 2b 09 78 bd da 3a ae 3c 97 e8 e7 3c
       0.06667857 -0.06055562 0.021268297 0.02830915
0002e0 02 8a 4f 3d 9b 3a 0b be c8 76 a9 bd 15 62 ac bd
       0.050668724 -0.13596575 -0.08274609 -0.08417145
0002f0 a1 1a b0 3d fe 63 c8 3d e9 a7 2f bd df 44 48 bd
       0.08598829 0.09784697 -0.04288474 -0.048893806
000300 bb 90 14 bd 16 47 28 3d 7c 7b dd 3c a2 3e 98 3d
       -0.03627084 0.041083418 0.027036421 0.07433821
000310 aa e5 bd 3c 92 54 93 bd 30 72 bd 3c 21 b7 2a be
       0.023180801 -0.07193865 0.023125738 -0.1667142
000320 dd 17 40 bb 8a bb 86 3d 4e 64 64 3d a2 75 4d 3d
       -0.0029311099 0.06578739 0.05575972 0.05016101
000330 21 f0 3c 3d 25 a1 a0 bd 40 55 b7 bd b4 f8 62 bc
       0.046127442 -0.07843236 -0.08951807 -0.013853241
000340 06 1b a1 bd bd f8 cf 3d 64 71 71 bd 38 b2 2d bc
       -0.078664824 0.10154865 -0.05894603 -0.010601573
000350 d4 c1 40 bd 02 de 8a bd b5 4d 37 3d 08 57 8d bd
       -0.04705985 -0.06780626 0.04475184 -0.069013655
000360 36 ad 9d bd a5 f6 68 bd 4a cb ce bd 34 a5 08 3c
       -0.07699053 -0.056875844 -0.10097368 0.008340169
000370 86 c0 4c 3b c8 c2 5a 3d 39 e9 0b 3c 9c e2 84 bd
       0.0031242683 0.053408414 0.008539491 -0.06488535
000380 e0 58 ce 3c 55 f9 35 3d cf 03 cd bc 38 50 9b bd
       0.025188863 0.044427235 -0.02502623 -0.0758366
000390 07 ac ca bb 69 1d 10 3d b9 2b 42 3d 1f c8 62 3d
       -0.006185058 0.035184298 0.04740498 0.05536663
0003a0 2f f1 72 3b b0 e2 c9 3c ab fc c2 3c 30 bf 88 bd
       0.0037070026 0.024644226 0.023802122 -0.06677091
0003b0 ee 36 4d 3d 65 31 65 bd 64 c2 95 3c 8b ee 4d 3d
       0.050101213 -0.05595531 0.01828117 0.05027632
0003c0 fc 7f 2d 39 16 ac 93 3d 55 d0 ec 3b 5f fc 8d bd
       0.00016546244 0.07210557 0.0072269836 -0.069329016
0003d0 23 2b b7 3d c2 6c 0f bd 59 66 65 bd 61 5c 69 3d
       0.089437746 -0.03501583 -0.05600581 0.056972865
0003e0 70 c7 87 3d 51 4d da 3c 3c 51 a0 3c db f1 ef bc
       0.066298366 0.026648195 0.019569986 -0.02929013
0003f0 f0 4a a5 bc 34 f9 99 3c 96 20 44 3a 01 3e 7a 3d
       -0.020177335 0.018795587 0.00074816623 0.061094288

model.2.bias f4 [128]
000000 3b a4 57 bc 3e 6e 14 bd fd 34 8a 3d 2a 6c 9c bc
       -0.013161714 -0.036237948 0.06748388 -0.019094545
000010 a3 52 05 3d b7 71 22 be f1 63 5c 3d 1b 3b ca 3d
       0.03254951 -0.15863691 0.05380625 0.09874555
000020 d0 0e 23 3d 97 88 cd bd fe 80 80 3e 95 5c 40 3c
       0.03980905 -0.10035818 0.25098413 0.011740823
000030 0b da a3 3c 1e 52 e7 be 94 db 81 3c 88 33 f8 bc
       0.020001432 -0.45179838 0.015851773 -0.03029801
000040 06 4e 40 3d ea c8 d0 3c f5 1b a5 bd 0c b2 08 be
       0.04694941 0.025486428 -0.08061973 -0.1334917
000050 86 03 6a bd 20 f9 4c bd 46 9f 7e 3e c7 f9 54 3e
       -0.057132266 -0.05004227 0.24865445 0.20798407
000060 2c c6 72 3d 16 71 68 3e 4f 58 f0 3d 74 1d a6 bb
       0.059271023 0.22699389 0.117355935 -0.005069429
000070 3c 58 47 bd 9a 5e ae bd 06 5e 0a bd 42 27 87 bd
       -0.04866813 -0.085141376 -0.033781074 -0.06599285
000080 d2 e8 c0 be a9 32 24 bc 57 04 ea 3c 90 7c 1b 3d
       -0.37677628 -0.010021844 0.028566523 0.03796059
000090 09 d1 ef bb 0d 6b 57 3d ed d7 4a be 02 23 69 be
       -0.00731862 0.052592326 -0.19808932 -0.2276726
0000a0 04 5b d9 3c aa 2b 64 3e 28 14 08 bd 37 95 9c 3d
       0.026532657 0.22282282 -0.033222347 0.07645648
0000b0 82 4f cd be 57 2a a2 bd e6 f1 01 bd b5 08 a7 ba
       -0.40099722 -0.07918232 -0.031724833 -0.0012743684
0000c0 36 a2 b6 bd 74 d9 84 bb cb 0d 92 3e f1 99 9d bc
       -0.08917658 -0.0040542427 0.28526148 -0.019238444
0000d0 cf e2 0b 3e eb 60 30 3d b9 f2 ea 3b ea c5 a5 bd
       0.1366074 0.04306118 0.007170048 -0.0809439
0000e0 f4 20 a4 bd 27 5d f2 bc 1b d3 5b 3c 21 51 aa bd
       -0.08014098 -0.029585434 0.013417031 -0.08316255
0000f0 52 3c e6 be b7 8b ef bc 6d 2b 56 3c c9 11 a6 bd
       -0.44967896 -0.029241426 0.013071877 -0.08108861
000100 18 6b 31 3e f0 04 e6 be be 52 07 bd 60 b8 a6 bd
       0.1732601 -0.44925642 -0.033037893 -0.081406355
000110 4b b5 9b 3c 32 a4 7c bd 7e 62 b2 3d 7b 6d 29 3d
       0.019007346 -0.061680026 0.08710192 0.041364174
000120 75 9e ae bd 6c 68 10 3d 7c 7a 51 3d 1e a4 1a bf
       -0.08526317 0.035255834 0.0511422 -0.6040667
000130 19 ae de 3b 0f a1 01 bd 8d 11 6f 3d 33 a4 37 bd
       0.0067956564 -0.031647738 0.058366347 -0.044834327
000140 d0 e1 ed 3c 10 49 8c bd 78 4d 38 3c 50 b6 01 3d
       0.02903834 -0.06849873 0.011248939 0.031668007
000150 ff 06 3c bd 2a f3 48 3d f1 9d c4 be 97 cd e0 bd
       -0.04590511 0.049060024 -0.3840175 -0.10976713
000160 47 98 6c bd 3a 73 c0 bb a2 59 0e bd 91 1c bb bc
       -0.05776241 -0.005873111 -0.03475345 -0.02284077
000170 d6 93 bb 3c a9 45 11 bb 8e 76 8e bd 76 a5 98 bd
       0.022897642 -0.0022166765 -0.06956206 -0.07453434
000180 7f 57 e0 be 7f 9a 91 bc 0c 3c e3 3d 0d b9 aa be
       -0.43816754 -0.017773865 0.110954374 -0.33344308
000190 88 fe c5 bd b6 09 8f bd 99 5a 23 bc 7c 12 af be
       -0.096676886 -0.06984274 -0.009970331 -0.3419379
0001a0 d2 6a 5e 3b 84 3c 8b 3d cd 2d 22 bd 0d 0f d7 be
       0.0033938182 0.06798652 -0.03959446 -0.4200367
0001b0 59 55 b3 bb ea 75 44 3d 36 da c7 bc 6c dd 4b 3c
       -0.0054728207 0.047964014 -0.024396043 0.012442928
0001c0 24 1f 43 3e 95 34 83 3e 96 f4 a2 3c 0a 92 55 bd
       0.19054848 0.25626054 0.019892018 -0.052141227
0001d0 6a 9e 4a 3d 38 bb 32 bd fa 7e 8f 3d d4 a8 32 bb
       0.04946748 -0.043635577 0.07006641 -0.0027261274
0001e0 5b 53 9b be bc 14 ef 3d ba 72 b2 be 5d 79 c0 bb
       -0.30337033 0.11673877 -0.34853154 -0.0058738426
0001f0 84 2b c1 bd 42 cd e6 bc d3 7f 95 3d 6a fe d3 3e
       -0.09432128 -0.028174046 0.07299771 0.4140504

model.4.weight f4 [128, 128]
000000 90 4a 89 3e a8 39 43 3e 1e c4 85 3e 20 2f aa bc
       0.268147 0.19064963 0.26126188 -0.020774424
000010 94 e6 2d 3e 45 6b 35 3e a7 b4 b1 3d c9 ab 63 3e
       0.1698249 0.17716701 0.08677035 0.222335
000020 49 09 8a 3e 02 ed 4a 3e fd ec c6 3c 18 6b 8f 3e
       0.2696021 0.19816974 0.024282927 0.28011394
000030 5f 6f 9a 3e 56 3c fb 3d 56 3c d3 3c 17 0f 3e 3e
       0.30163094 0.122673675 0.025785606 0.18560444
000040 df e5 3f 3e 1f 87 2f 3e 39 6f 6d 3e 09 30 41 3e
       0.18740033 0.17141388 0.2318696 0.1886598
000050 30 73 78 3e 85 44 32 3e 13 b8 f7 bd f0 78 a5 3c
       0.2426269 0.1740895 -0.12095656 0.020199269
000060 77 aa 99 3e c3 29 dc 3a 3d 47 bf bc f8 a5 03 3d
       0.30012867 0.0016797114 -0.023349399 0.032140702
000070 3a 75 15 3e b2 e7 4a 3e 88 b9 64 3e 4b a8 17 3e
       0.145955 0.19814947 0.223364 0.14810292
000080 fd c6 07 bc 0a 79 88 bc f9 8b 81 3e 09 47 d0 3d
       -0.008287189 -0.016659278 0.25302103 0.10169799
000090 d2 0a 24 bd 47 79 90 3e 1f 32 8d bc fa fe 12 3e
       -0.04004938 0.28217527 -0.017235814 0.14355078
0000a0 0a 46 33 3e 2e 8e 91 bd 5e 9e 6a 3e 7b c0 8f 3e
       0.17507187 -0.07107197 0.22911975 0.28076538
0000b0 e4 40 af 3d 17 3a e3 3c 30 3b 64 3e 5c e4 91 3e
       0.08557299 0.02773766 0.22288203 0.28494537
0000c0 33 7b 6f 3e 93 e7 51 3e ba ba 83 3d 15 30 6d 3e
       0.2338684 0.20498495 0.064321 0.23162873
0000d0 c9 02 77 bd 5e 59 1d 3e 53 8c 5f 3e f2 10 36 3e
       -0.06030539 0.15366122 0.21830873 0.17779902
0000e0 70 ce 27 bd 9e 2e 46 3e c8 4a 1c 3e ff e4 63 3e
       -0.04096836 0.1935372 0.15262902 0.22255324
0000f0 94 18 63 bd e9 9f 54 3d da dd c7 3d 9f 7b 5d 3e
       -0.05544336 0.051910315 0.09759112 0.21629189
000100 43 3a 67 bc cc 8a 23 3e 9a 1a ef b9 86 19 69 3e
       -0.014113012 0.15970916 -0.00045605452 0.22763643
000110 91 8c 22 3e d9 e4 4e 3e 97 65 32 3e 56 3b 4d 3e
       0.15873934 0.20204486 0.17421566 0.20042166
000120 c0 6b 37 3e 8e a6 98 3e f7 60 ea 3d be a2 cf 3d
       0.17912197 0.2981457 0.11444276 0.101384625
000130 5d e6 9b bb 8c be 6c 3e ed a1 4b 3e 23 4f 93 3e
       -0.004757686 0.23119563 0.19885989 0.28771314
000140 7c 86 ac 3d 69 7e 8e 3e 57 f5 3b 3e 82 2e b9 3d
       0.08424088 0.27830818 0.18355308 0.09042074
000150 0d f1 ed 3d c1 65 8b 3e b3 b3 13 3d 17 e0 12 3e
       0.116182424 0.2722607 0.036060046 0.14343296
000160 54 06 04 3e 5e dd 2c bd a5 68 a3 3e 12 9e d7 3d
       0.12893039 -0.0422033 0.31915775 0.105281964
000170 ac b4 93 3e 69 52 3b b9 c7 c8 47 3e 38 45 d2 bb
       0.2884878 -0.0001786441 0.19510184 -0.006416943
000180 e0 e0 28 3e f5 1f 5c 3e 58 f5 41 3e 77 2c 0d 3e
       0.16492033 0.21496566 0.18941247 0.13786493
000190 fe 5d 3a 3e 01 ef 37 3e ed 9d 32 3e bf ae 39 3e
       0.18199918 0.17962267 0.17443056 0.18133067
0001a0 91 45 6d 3e ee 7e 2a 3e 0e 16 26 3e d7 c1 b3 3d
       0.23171069 0.16649982 0.1621935 0.087772064
0001b0 a8 f1 62 3e d7 2c 86 3e 85 2f 56 bd ca a4 52 3e
       0.22162497 0.26206085 -0.052291412 0.20570675
0001c0 e4 6c a7 3d b7 02 f6 3c f7 70 89 3e eb e7 33 3e
       0.08175066 0.030030591 0.26843998 0.17568938
0001d0 b9 32 0e bd a9 c3 12 bd cb 45 97 3e 5f 9f 54 3e
       -0.03471634 -0.035831127 0.29545435 0.2076392
0001e0 78 7c 1f 3e 5a 70 32 be 61 59 0c 3e bc 1c 67 3e
       0.15574825 -0.17425671 0.1370597 0.22569555
0001f0 6f 5f 69 3e 55 8f 1a 3e 3f 27 54 bb 1a 75 76 bd
       0.22790311 0.1509374 -0.0032372025 -0.06017027
000200 d2 5e 47 3e 68 c1 7e 3e 12 43 12 3e 6d 00 c0 3c
       0.19469765 0.24878466 0.14283398 0.023437703
000210 d9 17 00 3e e7 f7 20 3e 88 48 96 3e 3b 21 84 3e
       0.12509097 0.15719567 0.29352212 0.25806603
000220 f4 3b 28 3e 14 9c 36 3e d4 26 08 3e e3 61 89 3e
       0.1642912 0.17832977 0.13296062 0.26832494
000230 95 9d 8b 3e b3 67 00 bf aa 63 8c 3e 47 d2 0d 3e
       0.27268663 -0.5015823 0.27419788 0.13849746
000240 74 6f 79 3e e0 8c b6 3e c6 be 37 3e d8 5e 20 3e
       0.24358922 0.35654354 0.17943868 0.1566118
000250 7c 50 28 3e 94 a1 62 3e 7c b1 ea 3d f0 f0 8f 3e
       0.16436952 0.2213195 0.11459634 0.28113508
000260 f7 69 63 3e 8d 3f 95 3e 70 28 91 3d 8d c2 12 3e
       0.22208391 0.29150048 0.07087791 0.14332028
000270 f6 21 e6 3d cf 56 78 3e 15 73 f3 3d 0f 8e 59 3e
       0.11236946 0.24251865 0.118871845 0.21245597
000280 b6 2c ca be 18 5e e5 3d 7d 27 f8 3d ef 49 9d 3e
       -0.39487237 0.111995876 0.12116907 0.3072047
000290 f5 6b 8b 3e f3 22 81 3e 33 d4 73 3e 61 16 c1 be
       0.27230802 0.25221977 0.23811416 -0.37712386
0002a0 ee 3c 1f 3e a8 f6 f3 3e 8b 7f 84 3e f6 1a 8f 3e
       0.15550587 0.4764912 0.25878558 0.27950257
0002b0 00 c3 9f be a6 92 4f 3e f8 5e 20 3e dc 7c 19 3e
       -0.3120346 0.20270786 0.15661228 0.14989036
0002c0 9f 42 8a 3e bf 43 88 3e cf 17 9d 3d 28 bb 21 3e
       0.27003953 0.26614186 0.07670557 0.1579405
0002d0 7b 00 b7 3e e7 87 a6 3d 43 d8 83 3e 4a 96 18 3e
       0.35742554 0.0813139 0.25750932 0.1490108
0002e0 e3 a2 c9 3d 8c 6c 08 3e a3 21 3a 3e da 6b 01 3e
       0.09845521 0.13322657 0.18176894 0.12638798
0002f0 66 b2 a0 3c c1 35 8e bd ca 80 cf 3d 7e a0 04 3e
       0.019616317 -0.069438465 0.101319864 0.12951848
000300 08 c8 20 3e 8a 3c be be 60 3f 01 3e e3 1a 32 3e
       0.15701306 -0.37155563 0.12621832 0.17393069
000310 e7 25 6f 3e 40 0a 4f 3e 8d d8 0d 3e 28 dd 62 3e
       0.23354302 0.20218754 0.13852139 0.22154677
000320 ff c2 89 3e 66 8a 63 3e 70 1f f7 3c bd cd 91 3e
       0.26906583 0.22220764 0.030166358 0.28477278
000330 2d 17 e2 3d 1f c1 57 3e 04 b9 58 3e 85 bf e0 3d
       0.11039577 0.21069764 0.21164328 0.109740295
000340 4e cc 85 3e c3 03 84 3e 35 75 8d 3e e0 4b 54 3e
       0.26132435 0.2578412 0.27628484 0.20732069
000350 42 7b 9b 3e b4 6a 99 3e a2 bd 9d 3d a6 1f 84 3e
       0.30367476 0.2996422 0.07702185 0.25805396
000360 15 4d 46 3e b6 c1 48 3e 90 51 07 3e 49 c9 0b 3e
       0.19365342 0.19605145 0.13214707 0.13651003
000370 8d d0 77 3e fc 08 33 be 4d d3 82 3e 22 7b 01 3e
       0.2420065 -0.17483896 0.25551835 0.12644628
000380 47 55 b6 be a9 45 4c 3e db 9a a3 3e d0 bf a8 3d
       -0.35611936 0.19948448 0.31954083 0.0823971
000390 f3 bb 60 3e 91 ff 4d 3e 56 ce 23 3e ee 1b 0d 3e
       0.21946697 0.20117022 0.1599668 0.13780186
0003a0 4c 47 3f 3e c0 15 4b 3e 29 47 83 3e 01 fe 7d be
       0.18679541 0.19832516 0.25640228 -0.24803926
0003b0 4c 1c 90 3e 69 e9 2c 3e a0 fb 43 be 94 d6 15 3e
       0.2814659 0.16885914 -0.19138956 0.14632636
0003c0 5c 49 ae 3c 78 8e 06 3e 09 59 67 3e eb 1d 35 3e
       0.021275215 0.13140285 0.22592558 0.17687194
0003d0 87 74 a2 3e 8c ea 07 3e fa 92 7a 3e 73 47 6f 3e
       0.31729528 0.13273066 0.2447013 0.233671
0003e0 61 5b 0d be 95 72 43 3d c7 09 22 be cb a9 88 3e
       -0.1380439 0.047716696 -0.15824042 0.26692042
0003f0 e5 dc 57 3e 86 cd 88 3e 74 5a 97 3c 5b 0c 43 3e
       0.21080358 0.26719302 0.018475749 0.19047682

model.4.bias f4 [128]
000000 19 11 4c be c1 f6 3c be f8 c2 d6 3d 9e ec f4 3d
       -0.19928397 -0.18453504 0.10486406 0.11959194
000010 68 7c 5f 3c 7f 25 d2 3d fb e7 bb bb c4 21 91 bd
       0.013640501 0.10261058 -0.0057344413 -0.070865184
000020 bc 31 0f be 18 25 d3 bd de 62 a4 bd c9 44 c1 3d
       -0.13983816 -0.103098094 -0.0802667 0.09436948
000030 af 71 c8 3d 18 2e 64 be 97 2f 38 bd 49 0a 78 bb
       0.097873084 -0.22283208 -0.04496726 -0.0037847927
000040 26 90 87 be 54 f8 0a be c1 2c 72 be 4e 5a 81 3d
       -0.26477164 -0.13571292 -0.23649885 0.063160524
000050 d9 41 e8 3d f4 9b 8e 3d c2 35 97 be bc 5d 0b bd
       0.113406844 0.069633394 -0.295332 -0.03402494
000060 30 b6 90 bd 29 17 61 3e a6 19 e5 bd 67 65 ad 3d
       -0.070659995 0.21981491 -0.11186533 0.084666066
000070 93 e7 82 bd a0 d7 3c 3d fc 5d 72 bd 21 ec 85 be
       -0.063918255 0.046104074 -0.05917166 -0.26156715
000080 78 f7 d9 3c 26 f4 12 be 7a 69 c5 be c3 1d ce bd
       0.02660726 -0.14350948 -0.38557035 -0.1006427
000090 ba 3a 2e be 9e 98 51 be 8b 99 2c bd f6 d5 50 3b
       -0.1701459 -0.20468375 -0.042138617 0.0031865812
0000a0 79 03 b2 3d 51 54 9d be 80 4c 85 be 78 3f 08 bf
       0.086920686 -0.3072839 -0.26034927 -0.53221846
0000b0 26 c8 f5 3d 39 ee 5a bc 2b 56 3e 3d 9c b5 b3 3c
       0.12001066 -0.013362461 0.046468895 0.021937184
0000c0 07 d6 a8 3d e9 b5 62 be 15 cf f3 3c bc 0e 5b 3d
       0.082439475 -0.22139706 0.02976183 0.05348085
0000d0 49 97 4c be fb 50 db bd c4 56 b4 bd b7 56 9b bd
       -0.19979586 -0.10708805 -0.08805612 -0.07584899
0000e0 9a 0b ad 3e 12 a8 1c bd 04 4e 4f 3e 45 9b ad bd
       0.33797914 -0.03824622 0.20244604 -0.08476881
0000f0 7f 56 39 bd eb 9a a1 be 0b 26 53 bd 47 ec 55 bd
       -0.045248505 -0.31563506 -0.051549952 -0.052227285
000100 ee d0 a4 3d 24 a3 b0 3d 80 e7 02 bc e4 9c 7e bd
       0.08047663 0.086248666 -0.007989764 -0.06216134
000110 04 24 8a bd 75 18 57 bc 42 4a 8f 3d 39 d4 3a 3d
       -0.06745151 -0.01312839 0.069965854 0.045612548
000120 35 43 b4 bd 83 1c cb be e0 f0 57 bd 9a e9 be bb
       -0.08801881 -0.3967019 -0.05271995 -0.0058261873
000130 2c 89 8c 3d 6a bd a8 bc 87 87 b0 3c e6 cb 8d bd
       0.06862101 -0.020598132 0.021549 -0.06923656
000140 c2 16 04 be 78 ee 8e be ee 53 62 bd 49 9c 94 bc
       -0.12899306 -0.27916312 -0.055255823 -0.018140929
000150 db ac 5b 3d 87 d7 dc 3d 38 48 cd 3d 65 25 89 be
       0.053631645 0.10783296 0.1002354 -0.26786342
000160 8e 66 ff bd d3 55 90 be 7d 27 74 3c 3f 6e 49 3e
       -0.12470733 -0.2819048 0.014901993 0.19670962
000170 9c 50 68 3c 97 74 d6 3b 9d 24 dc bd 93 7f 73 3d
       0.014179375 0.0065446603 -0.10749171 0.059447836
000180 9e 29 83 bd 7f a3 23 be 97 18 78 be b6 9f 81 bd
       -0.06404422 -0.15980338 -0.2422813 -0.063292906
000190 5c f7 e5 bc 42 63 fa bd 87 ad 4b 3e 76 fa a1 3c
       -0.028072052 -0.12225963 0.19890414 0.01977275
0001a0 81 6d 2c be ea 41 dc bd d0 c2 89 3d 3c d5 00 be
       -0.16838647 -0.107547596 0.06726611 -0.12581342
0001b0 62 00 32 bd 20 09 07 3d c9 df 97 be 75 83 8b 3d
       -0.043457396 0.032967687 -0.29662922 0.06812183
0001c0 b6 06 10 bd 1b 31 78 b9 94 07 b7 3d 53 fc be 3c
       -0.03516265 -0.00023669416 0.08936992 0.023313677
0001d0 d1 2b 39 be 99 ef de bd a0 e0 73 3d 54 96 00 be
       -0.18083121 -0.108855434 0.05954039 -0.12557346
0001e0 d2 01 03 be 88 ca 6c bd f3 1d 8b be 63 7a 86 be
       -0.12793663 -0.057810336 -0.27171287 -0.2626525
0001f0 73 e4 ed bd 69 a7 c2 3d fd 5e ad bd f4 ab f6 bd
       -0.11615839 0.09504587 -0.08465383 -0.12044516

model.6.weight f4 [128, 128]
000000 8c 3f 1e bd 56 f6 5d be 0b 4d ec bd e4 d5 1b be
       -0.03863482 -0.21676001 -0.11538132 -0.15218312
000010 83 73 81 be 31 19 86 3d b8 16 1b be 61 32 b1 bd
       -0.2528344 0.06547774 -0.15145385 -0.08652187
000020 90 a9 c0 bd 68 35 61 be 09 ec 31 be 60 c2 f2 bd
       -0.094073415 -0.21993029 -0.17375197 -0.1185348
000030 fa 1b 04 3d 59 79 68 be 1d cd 3c be 8e 3f b0 bd
       0.032253243 -0.2270254 -0.1843762 -0.08605872
000040 57 af 70 be 2d 43 6c be 69 af ef be 58 c1 89 bd
       -0.23504387 -0.230725 -0.46813515 -0.067263305
000050 8b d2 5d bc 3a 0a 0c bd 25 48 0f 3d 01 d2 9c bd
       -0.013538967 -0.03418944 0.03498091 -0.076572426
000060 b9 12 df bd 76 32 01 3e ec 8a 66 be 01 e3 07 be
       -0.10892243 0.12616906 -0.22513932 -0.13270189
000070 85 8b 49 3e ab 9e 70 be f8 b6 aa bd b2 8d 8f bd
       0.19682129 -0.23498027 -0.0833568 -0.07009448
000080 82 45 81 bd 01 a8 6f be 27 6d ae be 81 51 04 be
       -0.06312086 -0.23403932 -0.34067652 -0.12921716
000090 fd 18 c5 bd dc af 08 be 65 8c 38 be b4 e0 ce be
       -0.09623907 -0.13348335 -0.18022306 -0.4040581
0000a0 44 fe 45 be 47 d6 2f be 80 98 2c be f0 b5 d7 bd
       -0.19335276 -0.17171584 -0.16855049 -0.10532749
0000b0 ee f1 0b be 91 2d c9 bd f5 49 65 be 46 3a 1c be
       -0.13666508 -0.09823144 -0.22391494 -0.15256605
0000c0 bd fa 3a be f6 d9 bb bb ab 14 14 be ab 48 c7 bd
       -0.18259712 -0.00573277 -0.14461009 -0.09730657
0000d0 52 d7 e0 bd 80 eb 83 bc 13 d2 42 be 39 7a 09 be
       -0.10978569 -0.016103506 -0.1902545 -0.1342553
0000e0 12 46 f3 be 6a 7b 25 be 0a 15 ae bd fe 8e ef bd
       -0.47514397 -0.1616036 -0.08500107 -0.116971955
0000f0 ae b1 3c be 27 eb f7 bc fa 7d 62 be c5 66 1f be
       -0.18427154 -0.030263497 -0.22118369 -0.15566547
000100 59 61 4c 3a 9e 84 a3 bc de 31 83 bd 59 3f b9 be
       0.00077964884 -0.019960698 -0.06405996 -0.36181143
000110 53 68 76 be 56 9a 5e be 52 bd 27 be 98 22 ff be
       -0.24063234 -0.21738562 -0.16380814 -0.4983108
000120 3c b6 58 be b0 cc 0b bf 0a 26 c4 bd af 74 46 be
       -0.21163267 -0.54609203 -0.09577568 -0.19380449
000130 10 ff 72 bd 89 72 2c be d0 f8 a0 bd 86 4e 22 be
       -0.059325278 -0.16840567 -0.07859957 -0.15850267
000140 6b 04 1e bf d0 ca ea be e1 9c 84 be bb 7d e8 bd
       -0.6172549 -0.4585786 -0.2590094 -0.11352106
000150 9f 58 22 be 45 2b 2b 3c 79 22 7c be e5 51 5c be
       -0.15854119 0.010447328 -0.24622525 -0.21515615
000160 12 43 68 be 88 60 14 bd 44 8c 20 be 7e b3 91 3e
       -0.22681835 -0.036224872 -0.15678507 0.28457254
000170 10 3a 70 be fd 67 18 be b0 3b 70 be 46 b5 5a be
       -0.23459649 -0.14883418 -0.23460269 -0.21358213
000180 e8 ad 31 be ed 7b 8a be 50 f7 9c bd 09 f6 6d be
       -0.17351496 -0.27047673 -0.076643586 -0.23238386
000190 9e 3d b3 bd eb f4 0f bd 27 99 db be b0 88 e2 bd
       -0.08751987 -0.03514568 -0.42890283 -0.11061227
0001a0 73 20 2b be 98 ac 0c be c6 0a 09 3c 31 0b 03 be
       -0.16711597 -0.13737714 0.008364385 -0.12797238
0001b0 ae e3 30 3e fc 75 63 be 39 a5 bc be 38 fa 21 bf
       0.17274353 -0.22212976 -0.36844805 -0.6327243
0001c0 06 7b 31 be 7a 72 53 bd 61 14 6f be d7 07 82 bd
       -0.17332086 -0.051622845 -0.23347618 -0.063491516
0001d0 3d cc 2e be 6c 17 29 bd f8 57 01 3e c4 43 e0 bd
       -0.17070098 -0.041282102 0.12631214 -0.10950425
0001e0 82 7b 85 be a5 af 25 be 38 e4 a8 bb 6e 95 8c 3c
       -0.2607079 -0.16180284 -0.005154159 0.017161097
0001f0 95 ed 25 bf 44 d2 df bd cc cf ed bd d1 14 1e be
       -0.64815646 -0.10928777 -0.116119 -0.15437628
000200 23 62 b7 3d 1e 62 c9 3e e2 cd ff 3d ed 56 8e 3d
       0.08954265 0.3933267 0.12490441 0.069501735
000210 55 14 65 3e ab ca 2e 3e d3 68 49 3e 39 a4 70 3e
       0.22371037 0.17069499 0.19668894 0.23500146
000220 f0 be 87 3e 65 9d 48 3e 3c d5 87 3e 87 b8 0e 3e
       0.2651286 0.19591291 0.26529872 0.13937579
000230 cc cc 11 be cc 64 f8 3d 73 ed 51 3e 9d 0f c7 3d
       -0.1423828 0.121286005 0.20500736 0.09719775
000240 bf 38 ac 3c ea e7 48 3e a9 b6 f8 3d fb 86 b0 3d
       0.021023152 0.19619718 0.12144215 0.086194955
000250 2b 54 dd bc 56 ea d0 bd fa 53 1f 3e b0 0b 11 3e
       -0.027017673 -0.10200946 0.15559378 0.14164615
000260 ea e6 10 3e 78 e9 9a 3e b7 10 79 3e 29 4e 16 3d
       0.14150587 0.30256248 0.24322782 0.036695633
000270 73 ce 61 3e 70 20 6a 3e 5a 70 12 bf d0 cb a1 bd
       0.2205141 0.22863936 -0.57202685 -0.07900202
000280 30 6e bd 3b ad eb 87 3e 0f ae 95 3e f1 bd 27 3e
       0.0057809576 0.26546994 0.2923436 0.1638105
000290 15 3c 83 bd cd b9 91 3e 1b 2b 57 3e 6f d6 9e be
       -0.06407944 0.28462067 0.21012537 -0.31022975
0002a0 aa 38 d3 3d 31 8d 49 3d b4 dd 02 3e 9b 90 ad 3e
       0.10313542 0.049206916 0.12779886 0.33899388
0002b0 0c aa c6 bd bc 39 10 3e 7b d2 97 3e e3 3c 19 3e
       -0.097004026 0.14084524 0.2965277 0.14964633
0002c0 a2 c2 25 3e 7f 59 89 bc 65 a1 43 3e 82 b2 13 3e
       0.16187528 -0.016766308 0.19104536 0.14423564
0002d0 2c d2 13 3e 60 75 0c 3e e4 d1 0f 3e 79 6d 78 3e
       0.14435643 0.1371665 0.1404491 0.2426051
0002e0 ab 65 c6 bd af 68 eb 3d 4a d6 1d 3d cf e5 55 3e
       -0.096873604 0.11494576 0.03853444 0.20888446
0002f0 42 55 87 3e 56 e4 27 3c 27 be 06 3e f9 c9 85 3e
       0.26432234 0.010247311 0.13158475 0.26130655
000300 0d d6 25 3d a1 47 4b 3e 71 3a 35 3e f9 4d 5b bc
       0.040487338 0.19851543 0.17698075 -0.013385289
000310 cf 66 86 3e 8a 15 3a 3e 3f 55 34 3e de ca 22 3e
       0.26250312 0.18172279 0.17610644 0.158977
000320 78 7b 6d 3e 9d 4c ee 3e e5 16 78 3d c5 51 f4 3d
       0.23191631 0.46542826 0.06056871 0.11929659
000330 9b e1 51 3d 77 09 24 3e d0 40 d1 3c 48 61 12 3e
       0.051240545 0.16019236 0.0255436 0.14294922
000340 33 c8 9a 3b 21 1b 8b 3e c1 1e 8f 3e 95 d4 8a 3e
       0.0047235726 0.27169135 0.2795315 0.27115312
000350 87 1e 8d 3e 26 3f c8 be af 1c 35 be cd c8 5f 3e
       0.27562353 -0.39110678 -0.17686723 0.21853943
000360 4a 91 50 3e 24 c4 18 be d0 9f 44 3e ae 3e a7 3c
       0.20367923 -0.14918572 0.19201589 0.02041563
000370 1b 4e 36 3e 75 ff 90 3e 9e 71 10 3e 4a 9d 33 3e
       0.17803232 0.28319898 0.14105842 0.1754047
000380 c5 ed a9 3d 0c 60 a6 bd 73 b7 ff 3d 9b 48 87 3e
       0.08297304 -0.08123788 0.12486162 0.2642258
000390 d1 2f 62 3e 36 ab 67 3e 48 38 0c 3e a6 6b 89 3d
       0.22088553 0.22623906 0.13693345 0.067099854
0003a0 93 86 38 3e d2 5f 84 3e 24 1a 50 be ad 60 24 3e
       0.18020086 0.25854355 -0.20322472 0.16052504
0003b0 8a 0f 25 bd 28 0f 27 bd 22 59 58 bd a6 6f 8d be
       -0.040298022 -0.04078594 -0.05281938 -0.27624243
0003c0 e7 d2 08 3e da 25 a9 3d c7 44 94 bb 87 1b 21 3e
       0.13361703 0.08259173 -0.0045248005 0.15733157
0003d0 0c 59 29 3e 74 47 da 3d 0e 15 87 bd 97 2d 02 3e
       0.16537875 0.1065816 -0.06595813 0.12712704
0003e0 b6 3f ed 3d fa e1 4a 3e 07 f5 36 3d f2 1e 92 bc
       0.115844175 0.19812766 0.04466727 -0.017837021
0003f0 dc 18 b3 bd 88 f9 23 3e 69 32 7f 3e 79 e8 b1 3e
       -0.08744976 0.16013157 0.24921574 0.34747675

model.6.bias f4 [128]
000000 0d b8 77 3e 45 8c 60 be 63 58 aa 3c b0 97 c7 bb
       0.24191304 -0.21928509 0.0207941 -0.0060910806
000010 d5 eb 33 bd 2d 59 a5 3d 6c e1 c9 bd 36 48 26 bd
       -0.04392608 0.080736496 -0.09857449 -0.04059621
000020 fc 7b 79 be 57 49 71 3e c0 1e b3 3d 12 1d 0b 3e
       -0.24363703 0.23563133 0.087460995 0.13585308
000030 95 23 0d bd b8 6c c8 3d e7 67 b2 bd 04 fa 96 bd
       -0.03445776 0.097863615 -0.08711224 -0.073719054
000040 4a c1 b4 3c b3 b1 b1 bd a4 8e b4 3d 1d 02 19 3e
       0.022064824 -0.086764716 0.08816269 0.14942212
000050 f4 ed 81 be cc 5f e8 bd 10 d0 17 be de 6b e2 3d
       -0.25376856 -0.11346397 -0.14825463 0.1105573
000060 91 2d ba 3d 00 f8 48 3e 51 20 88 be 00 ca a8 bd
       0.09090722 0.19625854 -0.26587155 -0.082416534
000070 5b c9 dc 3d 3f 60 8d bd 87 68 ae bd 49 32 db bc
       0.10780593 -0.06903123 -0.08516031 -0.026757376
000080 7b fa ab 3d 83 cd 1e be d8 f6 d9 bd 00 2a 6f be
       0.08397385 -0.15508084 -0.10642785 -0.23355865
000090 1c 8a 9a be ad 65 50 bd a3 14 3d be 41 f3 1a be
       -0.30183494 -0.050878216 -0.18464904 -0.15131857
0000a0 3b 9c 8b bd dc 04 fe bd 70 bc ad bd 93 14 62 be
       -0.06816908 -0.124032706 -0.08483207 -0.22078161
0000b0 fe 53 71 be b4 d8 f5 bd 87 ab 54 3d 21 78 1b be
       -0.23567197 -0.120042235 0.051921394 -0.15182544
0000c0 35 3a 53 bd 1c 8b 57 3e 0a fc 4e 3e 2a c9 89 3d
       -0.051569182 0.2104916 0.20213333 0.06727822
0000d0 3e e7 30 be a4 15 a3 bd de 24 48 3d fd f2 f5 bc
       -0.17275712 -0.07963112 0.048863284 -0.030023092
0000e0 2c 49 06 be 45 56 6a be 94 8c d4 bd 4e ae 29 be
       -0.1311385 -0.22884472 -0.10378376 -0.16570398
0000f0 65 62 d8 bd 4f 02 2a be 5a 2a 21 be c5 08 43 3d
       -0.10565642 -0.16602443 -0.15738812 0.047615785
000100 10 d5 1b be 6e ea 00 be 0c 9b 89 be 86 35 80 be
       -0.15217996 -0.12589428 -0.26876104 -0.25040835
000110 25 ed 34 be 79 eb ea 3c 44 52 e1 bd cb 3a c0 bd
       -0.17668588 0.028676735 -0.11002019 -0.09386214
000120 ce 68 4f be 8a b1 f1 bd 10 69 83 be b8 0e 28 be
       -0.20254824 -0.11801441 -0.25666094 -0.16411865
000130 8f 8d 09 be ba c4 b1 bc 10 d8 b1 3d 8f b4 0f bb
       -0.13432907 -0.021700252 0.08683789 -0.002192769
000140 09 9e bc bd 20 44 80 be 87 3c 6e be d4 37 ce bd
       -0.0920983 -0.25051975 -0.23265277 -0.10069242
000150 7e e0 76 be ef bb 52 3c 38 f2 88 be c6 aa 06 be
       -0.24109074 0.01286219 -0.26747298 -0.13151082
000160 26 2d 83 be 23 0c 1b be d8 35 6e 3c e5 4c 4e be
       -0.25620383 -0.15141349 0.014539205 -0.2014652
000170 4a 49 67 be 54 d2 be bd 19 48 2a be f1 49 2c be
       -0.22586551 -0.09317461 -0.16629066 -0.16825081
000180 f7 79 27 3e c3 24 cc bd ff cb 71 3c da 10 15 3e
       0.1635512 -0.09967949 0.014758109 0.1455721
000190 92 72 02 bd 75 83 ba 3c 3a e3 38 be 9f 00 36 bd
       -0.031847544 0.022767762 -0.1805543 -0.044434186
0001a0 39 03 0f 3e fb c4 9e be d7 15 0e 3d e9 39 04 be
       0.13966073 -0.3100966 0.034688797 -0.12912716
0001b0 5c c9 14 be 62 9c 1a bd 17 be 21 bd c1 4a a2 3c
       -0.14529938 -0.037746795 -0.039487924 0.019811036
0001c0 50 2e 68 3d f6 bd ed bd 55 52 e3 bd 47 e9 0a 3e
       0.056684792 -0.11608498 -0.11099688 0.1356555
0001d0 dd 52 45 be d7 d6 6b be 3a 79 29 be 16 c3 56 3e
       -0.19269891 -0.23031174 -0.1655015 0.20972857
0001e0 83 14 2f 3e 65 73 4d bd db e0 1c 3e c0 39 a1 bd
       0.17097668 -0.050158877 0.1532015 -0.07872343
0001f0 39 a5 e8 bd 59 3b f6 3d e5 f2 5f bd 67 a0 93 bd
       -0.11359639 0.120230384 -0.054675 -0.07208329

model.8.weight f4 [128, 128]
000000 ce fd 10 bd 89 9e e1 3d d6 75 ea bd 9f 5d e2 bc
       -0.035398297 0.11016566 -0.11448257 -0.027632533
000010 1e 16 24 3e f6 6e b6 3d af 83 50 be 23 3e cc bc
       0.16024062 0.08907883 -0.20362733 -0.024931973
000020 43 32 b5 bb 1a b6 fd 3d 1f b3 85 bc a3 35 bb bd
       -0.0055296733 0.12388249 -0.016320763 -0.0914109
000030 3e 2b 22 be 1a 9c 41 bd 8a 28 71 3d c9 c2 e5 bd
       -0.15836808 -0.04726801 0.05887655 -0.11218793
000040 e2 6d db bd f3 54 29 bd 22 c6 5e be 9a b0 f1 bd
       -0.10714318 -0.04134078 -0.21755269 -0.11801262
000050 4b e3 2f 3e 10 ba 09 bc 79 36 f8 bd 0c 0b 11 3e
       0.17176549 -0.008406177 -0.12119765 0.1416437
000060 97 f4 38 3d fb 89 b9 3d f4 cb 8a be ff b9 43 be
       0.045155134 0.09059521 -0.2710873 -0.1911392
000070 46 56 b1 bc b0 a3 03 be ca 1c 0b be 3a 68 e1 3d
       -0.021647584 -0.1285541 -0.13585201 0.11006208
000080 50 d7 6c bd 84 7f 1b be ae f9 99 3d 70 b2 6e be
       -0.057822526 -0.15185362 0.07518326 -0.23310256
000090 f5 13 12 3e 6a fb 7e 3d 1a e5 2b be 31 42 17 be
       0.14265426 0.062251486 -0.16786614 -0.14771344
0000a0 9d 8c 81 be 17 4d 03 be ef 9b 29 be 0e 40 ac bd
       -0.25302592 -0.12822376 -0.1656339 -0.08410655
0000b0 f5 ba 50 be 00 70 75 be 89 dd 77 bd 11 c6 6a bc
       -0.20383818 -0.23968506 -0.060514007 -0.014329449
0000c0 f1 a7 25 be e7 7d 1d 3e 7c 97 58 bd e4 b0 db 3d
       -0.16177346 0.15380059 -0.05287884 0.107270986
0000d0 4d 85 4c be ac f1 44 bd 1b 80 8b bd 3c 23 eb 3d
       -0.19972725 -0.04808204 -0.068115436 0.1148133
0000e0 db 90 c2 bd 5f 58 f5 bd b1 26 86 be a7 9b 48 be
       -0.09500285 -0.11979746 -0.26201394 -0.19590627
0000f0 3d 42 4f be 59 61 7c be f2 8d 45 be e5 90 f5 3d
       -0.20240112 -0.2464651 -0.19292429 0.11990527
000100 af 6b 15 be 2d 74 56 be 8f 15 01 bd b1 ff ff bd
       -0.1459186 -0.20942755 -0.0315147 -0.12499941
000110 85 e0 1d 3e 4c c3 5c be f0 21 0d bd 23 38 19 be
       0.15417679 -0.21558875 -0.034456193 -0.1496282
000120 a2 60 72 be 27 0d 18 be b7 0c 76 bd 07 f1 87 be
       -0.23669675 -0.14848767 -0.06007072 -0.26551077
000130 32 73 40 be 62 a4 23 be da df 06 3e ac b6 19 bc
       -0.18793944 -0.15980676 0.1317133 -0.009381931
000140 88 c4 84 be 17 d8 a2 bd 08 a7 be bd ec 59 15 be
       -0.2593119 -0.07951372 -0.093092024 -0.14585084
000150 bb 55 48 be 8b 5e 42 bc f3 9e 0d be 70 48 83 be
       -0.19563954 -0.011863361 -0.13830166 -0.25641203
000160 2c 80 66 be cd 3f 98 bc 09 04 01 3e c1 8f bf bc
       -0.22509831 -0.01858511 0.12599196 -0.023383977
000170 cc cc 60 be 2d 8e 55 be 52 89 48 bd 95 dd 6f be
       -0.21953124 -0.20855017 -0.048959084 -0.2342437
000180 91 94 90 3d 21 3a d9 bd 51 b4 23 3e 37 49 d7 bb
       0.07059587 -0.1060679 0.15986754 -0.006570007
000190 d9 e7 b4 3c 61 ba 11 be 14 b6 87 3d 42 7d 41 be
       0.02208321 -0.14231254 0.066265255 -0.18895438
0001a0 59 b3 4f be c8 ad 24 3e 02 e5 64 3d be 2a 48 be
       -0.2028326 0.16081917 0.05588246 -0.19547555
0001b0 2f ca 81 be 95 c9 ab 3d 1f 41 fb 3b 2c 18 a2 bc
       -0.25349566 0.08388058 0.007667675 -0.019786917
0001c0 a5 db 40 3e bc fe 56 be d4 66 b2 3d b4 75 3a be
       0.18833788 -0.20995611 0.08711019 -0.18208963
0001d0 de 2d b5 3d 7c 46 bf bd e5 c1 27 be d7 69 4e 3d
       0.08846639 -0.09339616 -0.16382559 0.050393905
0001e0 95 ce 0b 3e 2e f4 b4 bd 4f 70 3d 3e 06 21 49 bd
       0.13653024 -0.08835636 0.18499874 -0.04910376
0001f0 bc d7 74 be f0 15 c0 39 9b b6 47 be ab 12 0b be
       -0.23910421 0.00036637438 -0.19503252 -0.1358134
000200 1a a1 5f 3e 77 71 c4 be 3c 58 b6 bd 25 2c d5 3d
       0.21838799 -0.38367817 -0.08903548 0.104088105
000210 c9 1e d2 be cd e2 23 3c d7 a5 3f 3e 81 73 14 bd
       -0.41039112 0.010002804 0.18715607 -0.036242966
000220 9d 29 f2 bd 24 5c 14 3e b8 ad 49 bd 0c e2 17 3e
       -0.11824343 0.14488274 -0.049237937 0.14832324
000230 0f 2b 6a 3e 8d 68 6e be 0a 22 08 be 93 79 44 3e
       0.22867988 -0.2328207 -0.13294235 0.19187002
000240 3e 3c 44 be 68 21 d7 be 4c 7a 7c 3e 1a b6 e2 be
       -0.19163606 -0.42017674 0.24656028 -0.44279557
000250 7a 75 3e bd 77 81 8a be 0e 96 8f 3d c9 c7 7c bd
       -0.046498753 -0.270519 0.070110425 -0.061713967
000260 74 ca 1d bd b7 17 80 bd b0 fe 2b 3e 22 2e 09 3e
       -0.038523152 -0.06254523 0.16796374 0.13396505
000270 5f ec 34 3e c3 9e 39 3e 25 fc 4a 3e a6 cd 16 bc
       0.17668293 0.18126969 0.19822748 -0.009204304
000280 0d 09 e8 bd 8b de 61 3e 15 f1 58 3d 2f 6b 01 3e
       -0.11329851 0.2205755 0.05296429 0.12638544
000290 c9 2a 39 bf 5d cf f4 3d a8 44 51 3e 25 eb 3a 3e
       -0.7233091 0.11953614 0.20436347 0.18253763
0002a0 ae 46 29 3e f2 3d 4e 3e 64 07 27 3d 87 c1 80 be
       0.16530868 0.20140818 0.040778533 -0.2514765
0002b0 ae 4e bf 3d d5 78 73 3e 4f d1 c3 3c 4c 38 86 be
       0.09341179 0.23776563 0.023903517 -0.26214826
0002c0 84 c2 ba bc 78 e1 7b bd 0c e1 09 3d de 6c 67 3d
       -0.02279783 -0.06149432 0.033661887 0.05650031
0002d0 c8 0b f9 3d 89 fb 3f be b3 98 d5 bd a4 ed d6 be
       0.1216045 -0.18748297 -0.10429516 -0.4197818
0002e0 4b 13 90 3d e5 da d5 be 88 9b 2b 3e 33 a2 38 3e
       0.0703493 -0.41768566 0.16758549 0.18030624
0002f0 3d ed 5c 3e 14 f8 83 3e 47 6b 15 3e db 58 03 be
       0.21574874 0.25775206 0.14591704 -0.12826864
000300 b2 74 44 3e 10 76 76 3e 81 d8 8b be 69 1d 6d 3e
       0.1918514 0.24068475 -0.27313617 0.2315575
000310 38 10 91 be 00 cf 76 3e c6 fc 36 3e a5 29 f9 3d
       -0.28332686 0.24102402 0.17869863 0.12166146
000320 9c 14 60 3e c0 ca d5 3d d7 e9 22 3d a5 ac 21 3e
       0.21882862 0.10439062 0.03977379 0.15788515
000330 12 7c 47 3e c0 66 6d 3e 5e 36 b1 be d1 28 64 3d
       0.19480923 0.23183727 -0.3461179 0.055702988
000340 b3 ef 39 3e a8 55 09 3e 22 5f ba 3d 9d b8 5c 3e
       0.18157844 0.13411582 0.091001764 0.215548
000350 ed cb 6c 3e d5 86 9d 3c 91 e3 2d 3e 8b 8f 77 3e
       0.23124667 0.019229332 0.16981341 0.24175851
000360 14 39 a3 3d ed 5e 2a 3c 47 51 b9 be af a8 dd bd
       0.07969871 0.010398609 -0.36194822 -0.108231895
000370 8b aa a1 3d b2 e1 d8 3d 41 84 3c 3e df b5 17 3e
       0.078938566 0.10589923 0.18409826 0.14815472
000380 70 fc 86 be b0 22 bb be 4e 5f 88 be 9f 10 ca bd
       -0.2636447 -0.36549902 -0.26635212 -0.098664515
000390 c9 f4 7a 3d ef 8f e3 bd 08 99 3d be eb ef 23 3e
       0.0612686 -0.111114375 -0.18515408 0.1600949
0003a0 55 7a be 3d b3 be ae be b5 10 b8 be dd ee e0 3d
       0.09300677 -0.34129867 -0.35950246 0.109830596
0003b0 d6 5a f4 3d ea 6d 81 be 23 54 17 bd 3d da aa 3b
       0.11931388 -0.2527917 -0.036945473 0.0052140043
0003c0 79 f8 10 3d 56 7e 04 3e ef 6b 1c bf 93 99 7a be
       0.035393212 0.12938818 -0.61102194 -0.24472646
0003d0 ad c3 fa bd 74 ca 21 3e c3 0b 5b 3e ba fb 5f 3e
       -0.122443534 0.15799886 0.21391205 0.2187337
0003e0 2c a8 78 3e f8 20 11 3d 63 8a 4f 3e 77 62 3f 3d
       0.24282902 0.035431832 0.20267634 0.046724763
0003f0 e3 26 95 bc b8 f8 3b bd 0b ca cf 3d 80 3a 42 3e
       -0.01820702 -0.045891494 0.101459585 0.18967628
