src/estimator/saved_models/distance_regressor.pt (torch, 23897 bytes, 5 tensors)

module.model.0.weight f4 [64, 13]
-0.14414158 0.104285315 -0.13745503 0.092564434 0.08395448 0.13858959 -0.21225064 -0.31052455
0.88092875 -0.35124424 0.0024861812 -1.3268431 -0.21703738 0.028239258 0.011969822 0.22433542
0.012680936 0.51185656 -0.026928833 0.016028782 -0.04222563 0.0091771 0.2343607 0.21815322
-0.19452092 0.031791087 0.037834316 -0.045826852 -0.1711592 0.1993546 0.39816278 -0.30799428
0.3089767 -0.08677477 0.22703601 0.21579985 0.37116972 0.16678958 -0.079358324 -0.16321836
0.06114994 -0.06395647 -0.14126462 0.25798273 -0.097125374 0.03667689 -0.035438295 0.21991716
-0.049522646 0.09277899 0.18378925 -0.033040557 -0.12811674 -0.19590025 -0.18457432 -0.22015233
-0.11301961 0.244433 -0.064255916 -0.07231416 -0.040518515 -0.21968487 -0.16417862 0.07432768
-0.24561675 0.265217 -0.24254489 0.07659657 0.2344297 0.102995776 -0.15414785 -0.020821476
0.16803849 -0.32714915 -0.2439498 0.6165759 0.22805837 0.42038447 0.18340051 -0.1300794
-0.053709887 0.19001682 -0.5549575 -0.088868104 -0.08421171 -0.2683579 0.020803181 0.2006944
0.41501474 0.13732491 -0.18104255 -0.13349593 0.079968855 0.11453004 -0.07780457 0.2523864
-0.3247671 -0.10574714 -0.094620556 -0.03001664 0.10885486 0.022528399 -0.07280153 0.19873154
-0.20339513 0.21846457 0.066545345 0.08350193 -0.48562852 -0.20421247 0.2575622 -0.30963984
-0.10941696 -0.33715025 -0.06017521 -0.11475072 -0.064116 -0.18243583 -0.10694751 0.27623045
-0.2216926 -0.24128549 0.037055757 0.23771195 0.07464138 0.11876406 -0.2477801 0.009617446
-0.15108824 0.2748123 -0.24332778 0.16845067 0.11634836 -0.27626294 0.6630379 0.08998046
0.20735095 -0.33518532 -0.053151112 -0.106299475 0.47939768 -0.122443266 0.8789742 0.10671948
-0.2286971 0.04017291 -0.14990784 -0.16432619 0.051472485 0.2206421 -0.11024909 -0.06448048
-0.0390258 -0.1478768 -0.14178185 -0.16456719 0.16059518 -0.101067826 -0.20912682 -0.120321505
0.3347309 -0.24961573 -0.12800042 -0.09078047 -0.0046673683 0.6729516 -0.33872387 -0.4553691
0.12870823 -0.24315707 -0.21004184 -0.1695544 -0.23907033 0.036102064 0.07390114 0.09787805
-0.22024101 0.07867215 -0.072930545 0.24153991 0.15782596 -0.14855373 -0.035290737 0.014353063
-0.07407091 0.20133774 0.33202833 0.25403967 0.014983068 0.18150234 0.23075256 -0.14336361
0.22701053 0.0077258972 0.0322318 0.1534729 -0.016429454 0.078869045 -0.17055106 -0.5124657
0.12058072 -0.16664822 0.07315588 0.107193954 -0.01221073 0.9277329 0.410443 0.08643187
-0.094272465 0.08168022 0.2793253 -0.004592576 -0.44401193 0.2732461 -0.088069096 0.2858608
-0.016130269 -0.13570534 0.41716063 0.20776357 0.07834206 0.14036223 -0.20479375 0.18560317
-0.04998855 0.10659871 0.24642292 -0.92894 -0.22990052 -1.1739821 0.81383395 -0.24530064
0.059757162 0.77891815 0.17458627 -0.20877221 0.03064023 -0.13183779 0.26199022 -0.24067988
-0.65667164 0.13788764 -0.20210932 -0.20416074 0.36625135 0.16130929 0.65508616 -0.12893896
0.08628129 -0.04330802 -0.058727674 -0.31596133 0.16077892 0.07754565 0.24939202 0.048631225
00000000: da99 13be 8a93 d53d 03c1 0cbe 6c92 bd3d
00000010: 54f0 ab3d 6eea 0d3e 3b58 59be 13fd 9ebe
00000020: 8c84 613f 49d6 b3be 33ef 223b ffd5 a9bf
00000030: 0c3f 5ebe 0456 e73c 131d 443c 2fb8 653e
00000040: b3c3 4f3c 0809 033f db99 dcbc cb4e 833c
00000050: c8f4 2cbd 8c5b 163c 40fc 6f3e 8f63 5f3e
00000060: 7e30 47be 5f37 023d 28f8 1a3d f0b4 3bbd
00000070: 5b44 2fbe 9d23 4c3e fedb cb3e 6db1 9dbe
00000080: 3232 9e3e f8b6 b1bd 217c 683e a3fa 5c3e
00000090: f509 be3e e3ca 2a3e 9e86 a2bd b722 27be
000000a0: 5c78 7a3d 9cfb 82bd aca7 10be 5016 843e
000000b0: abe9 c6bd 823a 163d bf27 11bd f731 613e
000000c0: 42d8 4abd e902 be3d 4033 3c3e 8955 07bd
000000d0: 0931 03be 139a 48be 0d01 3dbe 9d6f 61be
000000e0: d376 e7bd a54c 7a3e 9b98 83bd 7219 94bd
000000f0: bef6 25bd 12f5 60be 711e 28be 1c39 983d
00000100: f582 7bbe 86ca 873e b05d 78be aade 9c3d
00000110: 570e 703e 73ef d23d efd8 1dbe cd91 aabc
00000120: 4812 2c3e 1880 a7be facd 79be ebd7 1d3f
00000130: 2288 693e a23c d73e 58cd 3b3e 8933 05be
00000140: e6fe 5bbd c593 423e b211 0ebf 7b00 b6bd
00000150: 3077 acbd 3566 89be 6f6b aa3c d582 4d3e
00000160: d07c d43e e79e 0c3e 3863 39be 28b3 08be
00000170: b6c6 a33d ba8e ea3d 0158 9fbd ca38 813e
00000180: e047 a6be f591 d8bd 6cc8 c1bd 75e5 f5bc
00000190: 4cef de3d 7a8d b83c f818 95bd 4880 4b3e
000001a0: d046 50be 2db5 5f3e ed48 883d 0f03 ab3d
000001b0: 4da4 f8be 131d 51be 31df 833e 1d89 9ebe
000001c0: 0016 e0bd f59e acbe 487a 76bd 6d02 ebbd
000001d0: 404f 83bd 75d0 3abe 4c07 dbbd 146e 8d3e
000001e0: 6303 63be 8b13 77be c7c7 173d c36a 733e
000001f0: 94dd 983d 923a f33d 11ba 7dbe 7e92 1d3c
00000200: e0b6 1abe 33b4 8c3e eb2a 79be 557e 2c3e
00000210: 0d48 ee3d 5672 8dbe dabc 293f ad47 b83d
00000220: cf53 543e 699d abbe fbb4 59bd 8ab3 d9bd
00000230: 9d73 f53e 89c3 fabd 7404 613f be8f da3d
00000240: 932f 6abe 598c 243d 7181 19be 2045 28be
00000250: d0d4 523d 01f0 613e 46ca e1bd 580e 84bd
00000260: 84d9 1fbd 046d 17be 432f 11be 4d84 28be
00000270: 1073 243e a6fc cebd 5725 56be 1f6b f6bd
00000280: d961 ab3e 449b 7fbe 8b12 03be 1ceb b9bd
00000290: b9f0 98bb 8e46 2c3f 376d adbe 2426 e9be
000002a0: 17cc 033e 2bfe 78be 3515 57be ab9f 2dbe
000002b0: dace 74be c2df 133d 7b59 973d 4974 c83d
000002c0: dc86 61be dd1e a13d 9c5c 95bd 3d56 773e
000002d0: 219d 213e 781e 18be 058d 10bd 1c29 6b3c
000002e0: 7db2 97bd 7b2b 4e3e 9eff a93e 7d11 823e
000002f0: 8b7b 753c c0db 393e 664a 6c3e e9cd 12be
00000300: 7375 683e 8629 fd3b 7e05 043d 0028 1d3e
00000310: 1097 86bc 1886 a13d f0a4 2ebe f430 03bf
00000320: 06f3 f63d d5a5 2abe c0d2 953d 8188 db3d
00000330: 840f 48bc e77f 6d3f 9625 d23e 3103 b13d
00000340: ec11 c1bd f647 a73d ba03 8f3e 527d 96bb
00000350: 8855 e3be eae6 8b3e 925d b4bd 595c 923e
00000360: a023 84bc 57f6 0abe 1496 d53e f9bf 543e
00000370: cd71 a03d 1ebb 0f3e 74b5 51be c20e 3e3e
00000380: cbc0 4cbd 6d50 da3d 4a56 7c3e 03cf 6dbf
00000390: 0b6b 6bbe 0c45 96bf 6c57 503f 1730 7bbe
000003a0: edc3 743d 2e67 473f bec6 323e 62c8 55be
000003b0: 3801 fb3c 7c00 07be 9523 863e c974 76be
000003c0: a21b 28bf 6b32 0d3e bff5 4ebe 830f 51be
000003d0: 4c85 bb3e 432e 253e bab3 273f 9308 04be
000003e0: 3fb4 b03d c063 31bd 6e8c 70bd afc5 a1be
000003f0: 3ba3 243e 41d0 9e3d 9f60 7f3e 8931 473d

module.model.0.bias f4 [64]
0.1405156 0.2584979 0.30468717 0.06591967 0.11691086 0.2623533 0.12733556 0.1735794
-0.17516373 0.033524428 -0.2550106 -0.27577114 0.18192525 0.0037693141 0.24749316 0.018754685
-0.31508753 0.20529796 0.15936196 0.010293102 -0.06647229 0.15113483 -0.04665766 0.06470456
0.08197715 -0.052729554 0.019083936 0.27473986 -0.2304681 0.24698956 -0.070265755 -0.04553699
-0.064991094 0.29172957 0.31203142 -0.24106975 0.011465031 -0.32576573 0.1757964 0.207903
-0.3691631 0.08199237 0.08644153 0.03147101 0.2465714 0.20258087 -0.11854749 -0.2766705
0.1712552 0.25763822 -0.026932511 -0.02568642 -0.2339914 -0.26066723 0.107342206 0.052289236
0.18259844 -0.039501853 -0.2867583 -0.24387898 0.09535631 -0.20999674 0.15170315 0.29884326
00000000: 52e3 0f3e d659 843e f5ff 9b3e e400 873d
00000010: f66e ef3d 2c53 863e 4164 023e ccbe 313e
00000020: 1f5e 33be e950 093d c090 82be e031 8dbe
00000030: 9d4a 3a3e 9906 773b d96e 7d3e 6da3 993c
00000040: 2753 a1be a139 523e c82f 233e 66a4 283c
00000050: a022 88bd 17c3 1a3e 1a1c 3fbd d383 843d
00000060: a3e3 a73d f2fa 57bd ea55 9c3c b4aa 8c3e
00000070: d4ff 6bbe d5ea 7c3e 7ee7 8fbd ff84 3abd
00000080: 0d1a 85bd 945d 953e 95c2 9f3e fdda 76be
00000090: d3d7 3b3c c4ca a6be f903 343e 86e4 543e
000000a0: f202 bdbe 9eeb a73d 4208 b13d bfe7 003d
000000b0: 377d 7c3e 5c71 4f3e 07c9 f2bd c1a7 8dbe
000000c0: 865d 2f3e 28e9 833e 92a1 dcbc 546c d2bc
000000d0: 719b 6fbe 2d76 85be 3bd6 db3d 3d2d 563d
000000e0: 16fb 3a3e b2cc 21bd fcd1 92be 69bb 79be
000000f0: 2b4a c33d 6309 57be 1258 1b3e fc01 993e

module.model.2.weight f4 [64, 64]
0.037195504 -0.018694565 -0.063312724 -0.065430716 0.012932882 -0.014673442 -0.06532489 -0.0498517
-0.054985896 -0.022058621 -0.048183337 -0.025007963 -0.08331542 0.09629348 -0.030817583 0.11054167
-0.0070248693 -0.07555959 0.010054365 0.10855645 -0.117571816 -0.08809969 0.049990803 0.055804774
-0.056888342 -0.07841399 0.014201075 0.03648573 0.06528826 0.027541742 -0.105691925 0.05093333
-0.05492629 -0.10492326 0.124507084 -0.03188041 0.019334808 -0.11294933 0.10463646 0.02444385
0.12033036 -0.1209365 -0.11490388 -0.1047038 -0.0142737925 -0.008076698 0.052838385 -0.016427994
0.03592752 -0.07818596 0.113061056 -0.1076255 0.01726818 -0.03950055 -0.021376655 0.058475584
-0.12461215 -0.05157827 -0.027525425 -0.08254793 0.014412329 0.04862453 0.100567386 0.11539361
0.044465665 0.035756856 -0.23776565 -0.028010145 -0.075332284 -0.112225674 0.09817209 0.011692338
0.08055426 0.065649435 -0.11575138 0.09867509 -0.08278843 -0.07819533 0.058998432 0.043892577
0.070020676 0.10895832 -0.119657 -0.15444589 -0.02342012 -0.012393713 0.07385821 0.033126764
0.09248576 -0.08958877 -0.18200183 -0.275068 -0.025161676 -0.06313281 -0.03718442 0.06122614
0.05865337 -0.02744711 -0.04274386 0.039185748 0.0102311885 -0.13859889 0.123112634 -0.12021521
-0.094011664 -0.10293765 -0.12419217 0.064895704 0.042685367 -0.030131638 0.00853245 0.12176268
0.0038912743 -0.06289136 0.0055346764 0.039674193 -0.11355139 0.050101895 -0.032423448 -0.10275753
-0.07047609 -0.2838665 -0.023955133 0.04414773 0.09672184 0.04475339 -0.11588249 -0.16255708
-0.07458657 0.115971476 0.14903542 -0.04592821 -0.002265513 0.0062512476 -0.18357806 0.0962477
-0.078161635 0.02372332 0.17880256 0.029808 -0.0291122 -0.06815876 0.039866943 -0.12959494
-0.17919677 -0.093918264 0.12820955 -0.1184217 0.08437036 0.059940115 -0.024261959 0.03815755
-0.0072785853 0.12530439 0.31769323 0.1914849 0.050869256 0.15709092 0.13434799 -0.16466732
0.030342687 -0.03608991 0.0014513058 0.071418144 0.103209525 0.073272824 0.10922557 -0.07489607
-0.032385252 0.08440415 0.06279003 -0.11091972 -0.11774902 -0.08587324 -0.10661178 -0.10489732
-0.003347084 0.13281064 -0.011398472 0.08053783 0.021347076 0.08931232 -0.03253737 0.07980892
-0.080300614 0.118522815 -0.10271375 0.11620048 -0.060768425 0.07273819 0.09519503 0.08176335
0.048963968 0.11284813 0.2453166 -0.11110346 0.059256583 -0.02155235 -0.055462137 -0.105175205
-0.08960184 -0.11983186 0.42405555 0.026588112 0.023066772 -0.101800576 0.08279545 -0.06567862
-0.05882197 0.03040455 0.11135298 0.041022345 -0.09799594 0.113847286 -0.11625782 0.07349954
-0.09309832 -0.08497725 0.13424493 0.18015477 0.07285001 0.08226498 0.0034151475 -0.071444996
0.09826207 0.13436322 -0.08948012 -0.04462949 0.0064288606 0.05002288 -0.034980908 -0.114138976
-0.0064081387 0.06363164 0.045181125 0.028996736 -0.12485356 0.028323453 -0.110060364 -0.03622681
0.05878307 0.06766924 -0.14055023 0.086506255 0.035748243 -0.085997574 0.10451386 -0.12475291
0.0003311719 -0.09922539 -0.05246592 -0.062415496 -0.01815636 0.021292929 -0.146459 0.15031254
00000000: 505a 183d 5825 99bc 1aaa 81bd 8a00 86bd
00000010: 70e4 533c e068 70bc 0ec9 85bd 4c31 4cbd
00000020: e438 61bd 48b4 b4bc e45b 45bd 80dd ccbc
00000030: 46a1 aabd 8435 c53d 2875 fcbc ac63 e23d
00000040: e030 e6bb fcbe 9abd 10bb 243c d852 de3d
00000050: 7ec9 f0bd 9c6d b4bd 28c3 4c3d 8c93 643d
00000060: c003 69bd 8497 a0bd a0ab 683c 1072 153d
00000070: dab5 853d 389f e13c 0275 d8bd 789f 503d
00000080: 64fa 60bd 02e2 d6bd 92fd fe3d 0895 02bd
00000090: 0864 9e3c fa51 e7bd a44b d63d 783e c83c
000000a0: c46f f63d 8ead f7bd ba52 ebbd f26e d6bd
000000b0: a0dc 69bc 2054 04bc 106d 583d 0094 86bc
000000c0: bc28 133d f61f a0bd 8e8c e73d c26a dcbd
000000d0: 0076 8d3c 54cb 21bd 181e afbc 1884 6f3d
000000e0: a834 ffbd bc43 53bd 007d e1bc e40e a9bd
000000f0: b021 6c3c 842a 473d 46f6 cd3d 7c53 ec3d
00000100: a121 363d c875 123d d778 73be 8875 e5bc
00000110: d047 9abd 93d6 e5bd 730e c93d 3891 3f3c
00000120: a2f9 a43d 3673 863d 0f0f edbd 2a16 ca3d
00000130: fb8c a9bd e024 a0bd 57a8 713d b4c8 333d
00000140: 0067 8f3d 8a25 df3d bb0e f5bd 1027 1ebe
00000150: 8ddb bfbc 000f 4bbc f942 973d eeaf 073d
00000160: 2d69 bd3d 517a b7bd b05e 3abe b7d5 8cbe
00000170: dc1f cebc c64b 81bd b14e 18bd 43c8 7a3d
00000180: 843e 703d c3d8 e0bc 3014 2fbd 3c81 203d
00000190: b7a0 273c deec 0dbe 7a22 fc3d 6433 f6bd
000001a0: 3089 c0bd fad0 d2bd 7758 febd 0ae8 843d
000001b0: dad6 2e3d a0d6 f6bc b0cb 0b3c b65e f93d
000001c0: c004 7f3b 2fcd 80bd 3b5c b53b 6881 223d
000001d0: a28d e8bd a537 4d3d 73ce 04bd 8a72 d2bd
000001e0: c555 90bd f356 91be 8e3d c4bc 40d4 343d
000001f0: 1a16 c63d 554f 373d cd53 edbd 5d75 26be
00000200: d8c0 98bd 7482 ed3d be9c 183e 381f 3cbd
00000210: 0079 14bb 44d7 cc3b e3fb 3bbe 841d c53d
00000220: 3513 a0bd 6857 c23c 0518 373e e82f f43c
00000230: b57c eebc d296 8bbd 854b 233d 89b4 04be
00000240: 5c7f 37be 3858 c0bd 5d49 033e 1487 f2bd
00000250: 5eca ac3d c483 753d 04c1 c6bc 174b 1c3d
00000260: 3381 eebb cb4f 003e b0a8 a23e 9e14 443e
00000270: 485c 503d 71dc 203e 8592 093e 8d9e 28be
00000280: 3a91 f83c 03d3 13bd be39 be3a ad43 923d
00000290: 845f d33d 1010 963d a8b1 df3d 1c63 99bd
000002a0: 66a6 04bd 15dc ac3d 0f98 803d e129 e3bd
000002b0: 6626 f1bd 4fde afbd 4757 dabd 68d4 d6bd
000002c0: c05a 5bbb 83ff 073e a8c0 3abc 05f1 a43d
000002d0: 10e0 ae3c 61e9 b63d e845 05bd dc72 a33d
000002e0: a674 a4bd 17bc f23d 965b d2bd 84fa ed3d
000002f0: 50e8 78bd c3f7 943d 9df5 c23d 8b73 a73d
00000300: 718e 483d ec1c e73d 4634 7b3e 368a e3bd
00000310: 08b7 723d 8e8e b0bc 442c 63bd 1966 d7bd
00000320: 2b81 b7bd 686a f5bd cf1d d93e 50cf d93c
00000330: 87f6 bc3c d27c d0bd a990 a93d 8382 86bd
00000340: 4eef 70bd f612 f93c 080d e43d 0c07 283d
00000350: 18b2 c8bd c428 e93d 9418 eebd ed86 963d
00000360: 55aa bebd 8d08 aebd 8177 093e 7e7a 383e
00000370: 6332 953d 8b7a a83d abd0 5f3b c151 92bd
00000380: a03d c93d 8396 093e 5a41 b7bd 69cd 36bd
00000390: 31a9 d23b cbe4 4c3d 2448 0fbd b2c1 e9bd
000003a0: 5dfb d1bb 4e51 823d d80f 393d 908a ed3c
000003b0: 39b3 ffbd 9606 e83c 5467 e1bd 9062 14bd
000003c0: 84c6 703d 2c96 8a3d 66ec 0fbe 312a b13d
000003d0: c06c 123d 7f1f b0bd 5d0b d63d 747e ffbd
000003e0: 24a1 ad39 ae36 cbbd 81e6 56bd 64a7 7fbd
000003f0: a6bc 94bc 826e ae3c 59f9 15be 88eb 193e

module.model.2.bias f4 [64]
-0.039302126 -0.05526752 0.0026729598 0.123108335 0.06202362 -0.034572303 0.03775724 -0.109381445
0.09621802 -0.104572065 -0.14941515 -0.011437394 0.026453784 -0.047327448 -0.1048226 -0.24145634
0.018873204 -0.098489955 -0.08846508 -0.10423258 0.05473707 0.17577308 0.022944873 -0.134599
-0.09514083 0.048226573 -0.15474865 -0.13109374 -0.053120065 0.03774349 0.06726145 0.02024331
-0.012519657 -0.18003686 -0.051501848 0.05526715 0.09483988 0.038073372 0.20310345 0.16011351
-0.16254723 -0.019854333 0.15760083 -0.09390794 -0.046642404 0.059464194 0.043221273 0.05381144
-0.1532166 -0.13234156 -0.052499637 -0.09155951 -0.08899549 -0.10017869 0.19148806 0.06378952
0.079466574 -0.11427035 -0.092053756 -0.004509315 -0.2256413 0.15483746 -0.06726037 0.03987405
00000000: 44fb 20bd 3260 62bd d32c 2f3b 3920 fc3d
00000010: 7b0c 7e3d b09b 0dbd 56a7 1a3d 6103 e0bd
00000020: f40d c53d e129 d6bd 4900 19be e863 3bbc
00000030: 9bb5 d83c 6dda 41bd 3bad d6bd 5540 77be
00000040: fa9b 9a3c 1ab5 c9bd 2e2d b5bd e477 d5bd
00000050: fa33 603d dcfd 333e e3f6 bb3c 52d4 09be
00000060: 32d9 c2bd 3a89 453d 6e76 1ebe 703d 06be
00000070: 6d94 59bd eb98 1a3d 5fc0 893d 4cd5 a53c
00000080: 3f1f 4dbc 955b 38be 9af3 52bd cf5f 623d
00000090: 693b c23d d3f2 1b3d 5afa 4f3e ccf4 233e
000000a0: c872 26be 8ea5 a2bc 1d62 213e ce52 c0bd
000000b0: 1b0c 3fbd ba90 733d ca08 313d 6269 5c3d
000000c0: d0e4 1cbe 8c84 07be dc09 57bd 8d83 bbbd
000000d0: 4443 b6bd 7c2a cdbd 7215 443e 14a4 823d
000000e0: 5fbf a23d 9306 eabd ae86 bcbd e0c2 93bb
000000f0: 830e 67be b68d 1e3e cebf 89bd f952 233d

module.model.4.weight f4 [1, 64]
0.023090392 0.0012570026 0.059956074 0.09283239 0.0059192614 0.008153162 -0.0033370322 -0.011713156
0.13082121 -0.05643612 -0.034552213 0.0674862 -0.0020737124 0.047243457 -0.053109657 -0.0016166494
0.11277242 -0.0016659261 -0.013067811 0.058388084 0.09479506 0.082837485 -0.0054001897 0.07281125
0.018562969 -0.0048596445 0.021229494 -0.03361766 -0.05170475 0.055673543 0.08109583 0.06879991
0.026619054 -0.00034920126 -0.036839902 -0.09256619 -0.042333998 0.011985434 0.04063402 0.0549405
0.023399523 0.028107636 0.04681725 0.10733648 -0.019823907 0.008064181 0.006702161 -0.07492717
-0.05168621 -0.015713476 0.048159555 0.029452471 -0.081371784 0.1114676 0.044963058 -0.061943907
0.069992565 0.0022832132 0.034662064 0.02959609 -0.0046533803 0.05060138 0.031996906 -0.10723386
00000000: 1028 bd3c 02c2 a43a 8094 753d e81e be3d
00000010: 5df6 c13b d794 053c 1cb2 5abb 89e8 3fbc
00000020: fff5 053e 9029 67bd 9f86 0dbd 3436 8a3d
00000030: 1fe7 07bb 5b82 413d 8389 59bd c1e5 d3ba
00000040: 3af5 e63d 345b daba 5f1a 56bc 5828 6f3d
00000050: ea23 c23d b3a6 a93d 13f4 b0bb 111e 953d
00000060: 5e11 983c a73d 9fbb 7ae9 ad3c acb2 09bd
00000070: 5cc8 53bd f109 643d 9215 a63d f8e6 8c3d
00000080: 3410 da3c 0015 b7b9 70e5 16bd 5893 bdbd
00000090: 6a66 2dbd 8e5e 443c dc6f 263d 4a09 613d
000000a0: 5bb0 bf3c fc41 e63c 72c3 3f3d 3ad3 db3d
000000b0: bf65 a2bc a01f 043c cd9d db3b 6b73 99bd
000000c0: ebb4 53bd 8cb9 80bc f442 453d 4f46 f13c
000000d0: 40a6 a6bd 2049 e43d 2f2b 383d e5b8 7dbd
000000e0: 4358 8f3d f6a1 153b cff9 0d3d 8073 f23c
000000f0: 627b 98bb 6543 4f3d 300f 033d 6d9d dbbd
