src/estimator/saved_models/distance_regressor.pt (torch, 23897 bytes, 5 tensors)

module.model.0.weight f4 [64, 13]
00000000: bd37 6c3e 78d9 60be 8872 8bbe 0f71 d23d
00000010: 6926 86bf 8ea1 203f 4f46 403d 0ab1 863e
00000020: cf5b 92be ede6 e73c a2ae d1bd fa21 693e
00000030: 26c5 6e3e f0f5 32bd 8b14 6ebe 35eb 38be
00000040: d800 e2bd 5d69 133c 9c71 043e 0bb1 32be
00000050: b8e8 a2bd f50c 6ebe 0671 66bd aeaa 8abd
00000060: c436 6abe adc1 203e 5789 133e c790 36be
00000070: 6391 883e 514b 18bd c5af b5bd d676 85be
00000080: 4295 b8be 4b69 593f fe61 01bf c615 e5be
00000090: ed09 1740 27fa 0340 4d81 ba3f fda8 9f3d
000000a0: 964c b3bd a23c b93d 81a5 55bd bd2b 133e
000000b0: 666e 98be cf09 a5be 3b5d 94be 75fe 2dbf
000000c0: 6e8b d83e ea19 e13e 4602 363f 3f42 423e
000000d0: df8b f03d b721 05be 0ce2 a43e 356a 463e
000000e0: bd0e a63e 6063 5f3d b469 ebbc 8c8f 18be
000000f0: 51eb 413d 9b70 c8bd 811f 183f 0ff9 bebd
00000100: cec3 543d 97e5 4bbe 34cb eebd a89b 47be
00000110: da45 893c 23d4 23be 1434 483b 19cc 4a3e
00000120: f855 3fbc 413b 193d 8a75 3ebe 2387 8d3e
00000130: 8944 18be f970 ef3d b6f6 443d 8f0a b33c
00000140: 8549 a0be bfbe b5be 3446 873e 5aa6 cbbe
00000150: e920 b3be 8ccc 873d 26fb 51be c9c3 7bbe
00000160: d7d5 743e 5b43 ae3d 41ad c4be 53f2 98bd
00000170: c5ef ce3d c6f8 ed3d 2f96 023e 929f c63e
00000180: b06e 353e e308 603d 203c 54be 2b2b 0f3e
00000190: 0b27 c1bb 6115 00bd 09c9 7bbe afe8 143e
000001a0: a285 a7be afde 1bbe 4d96 d4be 9c47 693d
000001b0: ceaf f43e 9ea5 b93d 8740 f23d 3aff d2be
000001c0: 12a2 853e 01ee 22bd 63fa e1be e4f3 f1be
000001d0: 9efc 883e bc24 2e3d d995 11be 9e72 84be
000001e0: 218a 48be 8c44 233e ea20 29be bdac 5b3e
000001f0: f357 1fbe 760f acbd 9812 e5bd 386c 17bd
00000200: d70d 96bd 7e49 833e cfb5 f1be 66d1 3c3e
00000210: 3ce9 bfbe ec86 093c ad7b b3be 5590 bc3e
00000220: 70a1 9a3e 5d1a 3ebf 7301 96be ac85 943e
00000230: edf3 5b3f e71e 26bf 1e4b 3cbf 950c f83d
00000240: 9dd8 423e 0fdd 9d3d 226a 223e 1e45 bdbe
00000250: 776e 06be f119 72bd 4c67 eebd 9d1a d2bd
00000260: eec8 54bd 2123 60be fc88 06bf 33de 05be
00000270: 248c 193d f197 643e 21d1 3cbe 0636 b03d
00000280: 0323 4e3e 3457 ebbd ce74 9f3b 866d 4e3e
00000290: ba44 a0be 572e acbe 7d43 90bd 1549 aabe
000002a0: 84c7 63bd edb3 5cbe 8cee 413e b94c 4ebe
000002b0: a9c5 21be 6d66 ddbe 1df6 493e 7416 dc3e
000002c0: ec22 11bf 43a4 d33e ac1c 283c ca1e 41bf
000002d0: d0ad c2be e62b 363e a327 68be b3fc 8abe
000002e0: 1b66 93bc 8858 00be dc68 093e 37c9 4b3e
000002f0: dcc1 213e 15bc 313e 994d 1e3e 2378 98bd
00000300: d41a 06be c352 23be 774a d03d b92d 843c
00000310: 3054 f0bc 7c32 54be a22e 733e 1dd8 313f
00000320: c385 aebd a053 26bd b6da 633d c436 583e
00000330: 6922 b53d 4174 053f 4a17 4ebd c58d a3bd
00000340: 2590 1a3e 5547 1d3e 172e 46be 0cbb edbd
00000350: 882b 3fbe 6005 873d 8745 fb3d 6466 9e3d
00000360: f525 07be 53b6 4abe 9ce7 26be be8b dc3d
00000370: 8870 10be cd62 b83d d0ce 4abe f113 fd3c
00000380: 33d5 3bbe 7cec 05be ccef 953c a219 df3d
00000390: 2af8 87be 4ee8 7a3e af6a cebb 7c08 cbbd
000003a0: 7488 a63d ab8e e33d 424b 8c3d 3abd 4abb
000003b0: 5763 f0bd f5cc 7d3e 740d dabe 6bf9 e3bd
000003c0: 61be 1cbe 372d d2bd c93c 213e a281 8fbd
000003d0: 9166 2f3f 12e8 35be 5bdf fdbd d2b8 793e
000003e0: c9ea a9bd 3afc 7abe 57c0 8bbd 08dd b03e
000003f0: b786 19be ba2f c83c b782 ffbd 422f 283d
0.23068137 -0.21957958 -0.27235818 0.102754705 -1.0480472 0.6274651 0.04694205 0.26306945
-0.2858567 0.028308356 -0.10238387 0.22766867 0.23317394 -0.043691576 -0.23250024 -0.18058474
-0.11035317 0.0089972885 0.12933964 -0.17450349 -0.07954544 -0.2324713 -0.05626013 -0.06770836
-0.22872454 0.15698881 0.1440786 -0.17828666 0.2667342 -0.037181202 -0.08871416 -0.26067227
-0.36051375 0.8492629 -0.5054015 -0.44743174 2.3599808 2.062143 1.457071 0.07795904
-0.08754842 0.09044768 -0.05215979 0.14372154 -0.29771727 -0.32234046 -0.2897738 -0.67966396
0.42293876 0.43965083 0.7109722 0.18970583 0.11745428 -0.13001142 0.3220371 0.19376452
0.3243312 0.05453813 -0.028736927 -0.14898509 0.047343556 -0.09787103 0.5942307 -0.09324848
0.051944546 -0.199118 -0.11659852 -0.19492972 0.01675694 -0.15998892 0.003054862 0.1980442
-0.011678211 0.037410025 -0.18599525 0.27642164 -0.14869894 0.1169147 0.048086844 0.02185562
-0.3130609 -0.3549709 0.26420748 -0.39775354 -0.34986046 0.06630811 -0.20505962 -0.24586405
0.23909698 0.08508941 -0.38413432 -0.07468095 0.10104326 0.116197154 0.12752603 0.38793617
0.17718005 0.054695975 -0.20726061 0.13981311 -0.005894547 -0.03127039 -0.24588408 0.14541887
-0.3271914 -0.15221666 -0.4152092 0.056953058 0.47790378 0.09064792 0.11828714 -0.41210347
0.26100212 -0.03977776 -0.44136342 -0.47256386 0.26755232 0.0425155 -0.14217319 -0.25868696
-0.19583942 0.15944117 -0.16516462 0.21452613 -0.15560894 -0.084013864 -0.11185187 -0.03696844
-0.073268585 0.25642008 -0.4720902 0.18439254 -0.3748263 0.008393984 -0.35055295 0.36828867
0.30201292 -0.7425898 -0.2929798 0.29008234 0.85919076 -0.64890903 -0.7355212 0.12111775
0.19027944 0.07708179 0.15860799 -0.36966795 -0.13128076 -0.05910677 -0.11640796 -0.10258982
-0.051949434 -0.218884 -0.5255277 -0.13073044 0.037487164 0.22323586 -0.18439151 0.08604054
0.20130543 -0.11491242 0.004866219 0.20158967 -0.31302434 -0.33629104 -0.07044122 -0.33258882
-0.055610195 -0.21553011 0.18938655 -0.20146455 -0.15798058 -0.43242207 0.19722791 0.4298588
-0.5669391 0.4133626 0.010260742 -0.75437605 -0.38023233 0.17790183 -0.2267137 -0.2714592
-0.017993024 -0.12533772 0.13418907 0.19900976 0.15796608 0.17356904 0.15459289 -0.07444789
-0.13096172 -0.1594954 0.10170453 0.016135084 -0.029337019 -0.20722383 0.23748258 0.6947039
-0.08521607 -0.040607095 0.0556285 0.21114641 0.08844454 0.52130514 -0.05031518 -0.07986025
0.1509405 0.15359242 -0.1935352 -0.11607942 -0.1866895 0.06592822 0.12269121 0.07734373
-0.13198073 -0.19796114 -0.1629929 0.10768841 -0.14105427 0.0900322 -0.19805455 0.030893298
-0.18343048 -0.13078493 0.01830282 0.10893561 -0.26556522 0.2450268 -0.006299339 -0.09913728
0.08131495 0.11111196 0.06850292 -0.0030935542 -0.117376976 0.24785216 -0.4258839 -0.11131557
-0.15306999 -0.1026253 0.15745844 -0.07007147 0.6851588 -0.17764309 -0.12396117 0.2438691
-0.08296735 -0.2451028 -0.06823795 0.34543633 -0.14992796 0.02443682 -0.12476104 0.041060694

module.model.0.bias f4 [64]
00000000: f704 993e 1421 e33d 695d d53d e4cf 673d
00000010: 8c0e 88bb 1e5a 54be 16e3 c5be 5488 2a3e
00000020: 5f98 5d3e 37b8 34bc 0ee6 cbbe ea66 0b3d
00000030: 214d 2cbc ca09 ca3d be72 893e 46ec 973e
00000040: 174c adbe a360 f03d 379e 8cbe 1397 2dbe
00000050: 3aaa 58be 6673 2a3e c1c5 61be 9834 b1be
00000060: 467e 7a3e 2eaa bd3d abe4 d8bd fd31 25be
00000070: 3f90 a2bd 10bf 343e 9853 4c3e e601 52bd
00000080: eb9f fb3c 778f 103d 1919 233e b2a4 403e
00000090: 1e3f a43d a818 84bd 08f0 513e 6a30 7dbe
000000a0: 09a2 543d 1630 03be 7995 733e d180 cb3e
000000b0: 5305 8a3e 0a73 003e f763 41bd 3cd2 82be
000000c0: 4fa0 82be a095 89bd e733 d2bd 0cd3 793d
000000d0: 9fb2 1f3d ec28 293e 676b 503d 92a9 2abd
000000e0: f835 92bb 9d6f 98be 1da7 09bd 82e1 90be
000000f0: f00d 243d 3797 16bd 1c6d 2cbc 4a44 843a
0.298866 0.110902935 0.10418207 0.056594744 -0.0041521247 -0.20737502 -0.38649815 0.16653568
0.21640156 -0.011030248 -0.39823955 0.034033693 -0.010516436 0.09865148 0.26845354 0.2967245
-0.33847114 0.11737182 -0.27464458 -0.16952161 -0.21158686 0.16645584 -0.22048093 -0.34610438
0.24462232 0.09260975 -0.1059049 -0.1613235 -0.07937669 0.1765101 0.19953763 -0.05127134
0.030715903 0.03529307 0.15927543 0.18812826 0.08019851 -0.06450015 0.20501721 -0.247255
0.05191234 -0.12811312 0.23787488 0.39746717 0.26957187 0.12543884 -0.047214475 -0.2555102
-0.2551293 -0.06717992 -0.10263806 0.060992286 0.038988706 0.16519517 0.050883677 -0.04166562
-0.004462 -0.29772654 -0.033606637 -0.2829705 0.040052354 -0.036765303 -0.010524061 0.0010091153

module.model.2.weight f4 [64, 64]
00000000: 767f c03d 7cb0 973d ec48 063d dacb f1bd
00000010: 780e 18bd 6891 493d 326a cfbd 246a 46bd
00000020: 00b3 fabb 480c 5ebd 3843 1ebd b873 bb3c
00000030: f2db bdbd e0b0 813b 2270 81bd 56ff 943d
00000040: cce7 2abd 0211 eabd 5061 b03c 00f9 0e3a
00000050: 609c 9fbc 5eb2 ce3d b047 28bc b234 ccbd
00000060: 1865 eabd be8f d7bd c44d 83bd b4bc 72bd
00000070: 0013 41ba 02cb 91bd 203f 94bd e08a 503c
00000080: e4cb 8a3d 8440 a7bd 2e0e dd3d cc84 93bd
00000090: 4604 fbbd 702e 993d 5c09 2bbd 0624 e2bd
000000a0: b2ec 9b3d 805d 36bd e077 923b aaa7 ae3d
000000b0: a0a9 9bbb 808b 43bb 5206 8cbd c872 a7bd
000000c0: e8f2 f73d a204 8e3d 8e41 b03d 6e2e 8fbd
000000d0: 645e 8ebd 8801 ccbc ae91 e23d 76d5 e3bd
000000e0: b0f9 0abc 6cd1 7dbd 30db 21bd 061c debd
000000f0: f03a b43d 8810 a1bd 7464 ddbd fe6e 85bd
00000100: 8b85 03be 8c32 7a3d 1914 7bbd 7c23 583d
00000110: 056d 103d 685f b6bd 4403 73bd 6c99 2fbd
00000120: b4d8 89bc 7a59 e3bd f337 3abf d26f ddbd
00000130: bf98 7fbd 239c 2e3f 80a1 12bb 9937 373d
00000140: 3f54 57be 4cfa f0bd e7a2 d93d 34e7 af3c
00000150: 4c6e 5ebc 4fd5 e33d 7041 a73c 8227 4cbe
00000160: 43c8 d13d 6e24 22be c8e9 b3bd 9ed5 9bbd
00000170: 4932 2fbe a0eb f6bc d746 813d 45c9 103d
00000180: 2e5e a8bc 7ce0 9bbc 287c cebd b60a ab3d
00000190: c8a7 973c 2076 02bd 3d92 ea3d fc8b ccbc
000001a0: 11e2 613d 0509 06bd 6a41 413d 4efc f03d
000001b0: aad5 083d 2e69 54bd e852 953d 96fb af3d
000001c0: 3bad fc3d b851 c6bd 3c50 a7bd f181 dd3c
000001d0: 88b4 c0bd 1ae9 dbbd 54a6 03be 9d49 54bd
000001e0: ce34 ccbd a3b5 b6bd 31be b03d 8322 1e3d
000001f0: 816e c33d f034 573d dae8 033e bbaf 783c
00000200: eae5 65be 5ee5 aabd 2bb0 cc3d 987c fdbb
00000210: a676 053e 6840 e1bc 85c8 5cbd 0659 e83d
00000220: d95e 283c e4bd a5bd ae8c 0abe d8c4 f2bd
00000230: 3694 b1bd 8757 77bd 003f adbc 2527 583e
00000240: c61e d33d a8de b3bc 12c0 a1bd 8d2a d93d
00000250: db91 393d 6d39 dc3d 2aac cf3d 3aa0 533d
00000260: baa9 253e 963c 3abb f2f5 5ebc ba4e e23d
00000270: cc19 75bd 98d3 ad3d d08e 9c3c 2f3f 243e
00000280: 3dcc 363c 6ebf 9a3d d8cd 5c3e fc8c c03d
00000290: 5067 bf3d 9478 8fbd bd97 4b3d 9025 0c3d
000002a0: 49d4 42be 3345 bbbc 3b40 9e3b 57aa df3d
000002b0: afb9 f03d 78cf 17bd 90e4 133d 7cec 843d
000002c0: 73df 573c b658 e0bd d5c2 0e3e 344a 043e
000002d0: ebb0 0f3c 0cf9 263e adfb 373d 771c 3fbe
000002e0: 39a1 6abd 67da 88bd 617b 013e 58d3 cd3d
000002f0: e5f6 c93d 7a6b b53d bf6e 343d 3a56 ad3b
00000300: 7bf1 263c f864 113d eff6 63bd 9347 583c
00000310: a5de 983c b8bf b2bd 745f df3d cc0a 773d
00000320: 252e 103a b0d1 fd3c 353f e8bc dc94 b1bd
00000330: 5c7a d73d dd29 c8bd d0a4 d63c ba84 1c3e
00000340: ca1b df3c f811 64bd 8db9 45be 99b0 fdbd
00000350: 1ed5 3abe c02f cd3d c7e3 70bd 843d 653b
00000360: 670c eb3d c166 7a3d 8e9f adbd 86b9 b13d
00000370: f228 073e fc92 7c3d 0b43 893d fb15 903d
00000380: c6d3 be3c 6815 923d 9507 f93c 2719 553d
00000390: 5410 06bd 3abc f43d 27c9 b13d a327 df3d
000003a0: ca65 77be 657a 293d bb5b b33d 99bb 353e
000003b0: 9aa6 543e 8bc7 543d 5b24 11bd 587d b33d
000003c0: 9757 85bc 8ad6 f53d 604c 143d 2fe1 19bd
000003d0: bb56 0dbe 57a2 b13d 7549 943a 5499 a1bd
000003e0: 38c9 033e 5251 bcbd e2e2 e1bc becf 903d
000003f0: e007 723d c042 6abb 9277 cabb 6262 cdbc
0.09399311 0.074067086 0.032784387 -0.1180646 -0.037123173 0.049210936 -0.10127677 -0.048441067
-0.007650733 -0.05421093 -0.038638324 0.022882327 -0.09270467 0.0039578527 -0.06320216 0.07275264
-0.041724965 -0.11429025 0.021530777 0.0005453974 -0.019483745 0.100926146 -0.010270998 -0.09970988
-0.11445063 -0.105254635 -0.06411317 -0.059261993 -0.0007365197 -0.07118799 -0.07238603 0.012728423
0.0677717 -0.08166602 0.1079372 -0.07203063 -0.122566745 0.074795604 -0.041756973 -0.11042027
0.076135054 -0.044522762 0.0044698566 0.08528073 -0.0047504455 -0.0029837787 -0.06837143 -0.0817619
0.121068776 0.069344774 0.086062536 -0.06991278 -0.06951597 -0.024903074 0.110629424 -0.11124699
-0.008482382 -0.0619673 -0.039515674 -0.10845189 0.08800304 -0.07864481 -0.108101755 -0.06515311
-0.12843911 0.06108336 -0.061298463 0.052768216 0.03526022 -0.08904916 -0.059329286 -0.042870924
-0.016826965 -0.11101051 -0.7274162 -0.10812344 -0.06240153 0.68206996 -0.0022374094 0.044730756
-0.21028231 -0.1176649 0.10626774 0.02147255 -0.0135761015 0.1112467 0.020416945 -0.19936946
0.10243275 -0.1583421 -0.087848246 -0.076091036 -0.17109026 -0.030141652 0.0631234 0.035348196
-0.02055272 -0.01902794 -0.10082275 0.08351652 0.018512622 -0.031850934 0.11453674 -0.024969094
0.055147234 -0.032723445 0.047181524 0.11766873 0.03340689 -0.05185812 0.07291204 0.08592908
0.123377286 -0.09683555 -0.081696 0.0270395 -0.094094336 -0.1073782 -0.12856418 -0.051828016
-0.09971009 -0.08921363 0.08630026 0.03860713 0.09542561 0.05254072 0.12881795 0.015178616
-0.22450987 -0.083445296 0.09994539 -0.0077358 0.13033542 -0.027496532 -0.053902168 0.11345105
0.01027652 -0.080928594 -0.13530228 -0.11853951 -0.08670847 -0.060386207 -0.021148205 0.21108682
0.10308604 -0.021956757 -0.07897963 0.10603819 0.045305114 0.107531406 0.101402596 0.051666476
0.16178027 -0.002841746 -0.013608443 0.11050172 -0.059839055 0.08487624 0.019111067 0.16039728
0.011157093 0.075560436 0.21562898 0.09401891 0.09345877 -0.0700542 0.049705256 0.03421551
-0.19026293 -0.022860145 0.004829434 0.109211616 0.11754166 -0.037063092 0.036106646 0.06490418
0.013175833 -0.1095442 0.1394151 0.12918931 0.008770208 0.16305941 0.04491775 -0.18663202
-0.05728266 -0.06682282 0.12644722 0.10050076 0.098615445 0.0885839 0.04405093 0.00528982
0.010189409 0.035496682 -0.055655416 0.013200658 0.018660853 -0.08727974 0.10906878 0.06031303
0.000550004 0.030983776 -0.028350452 -0.08670971 0.10521385 -0.0977361 0.026201636 0.15285006
0.02723493 -0.0556812 -0.19309063 -0.12387199 -0.1824536 0.10018873 -0.058810975 0.0034979293
0.11476975 0.06113315 -0.08477698 0.08677964 0.13199213 0.061663613 0.067022406 0.070354424
0.02329434 0.07132989 0.030399123 0.05202594 -0.032730415 0.11949964 0.08680945 0.10896232
-0.24159923 0.04137649 0.087577306 0.17747344 0.20766678 0.05194811 -0.035435062 0.08764142
-0.016277118 0.12003811 0.03620565 -0.037568267 -0.13802616 0.08673542 0.0011313396 -0.07890573
0.12869728 -0.09195198 -0.027574006 0.07070874 0.05908954 -0.0035745353 -0.0061788047 -0.025071327

module.model.2.bias f4 [64]
00000000: 863b ccbd 9c2f d43d 1dbc 163e deb1 eb3b
00000010: a60e 523d 9e62 c93d ae7c fa3d e2c5 9fbc
00000020: a42a 8b3d c0f7 953b 66be b5bc 5c61 dcbd
00000030: bf90 9f3d 9971 71bd 575b 14be 4c6f 0d3d
00000040: 7848 d1bd b698 123d 685c 0a3e f422 273d
00000050: a64a cf3d c41f 803c fe18 a73d c35e 5c3d
00000060: a89b 3d3d 6233 0a3e 7001 a73d 5795 fdbc
00000070: f0e3 213e 8651 95bc 10a7 a73c b0f0 3dbd
00000080: 3c71 543d e9df b7bd 4d21 8dbd 9842 b93d
00000090: a3e8 96bd 87dc ebbc 162b 463c 964c 013e
000000a0: a072 3bbd 90b6 c33d 78e4 b43d ddab 0c3d
000000b0: beb0 1cbe a984 163e 37bb 883c 4408 19bd
000000c0: 18e8 8bbc 3cf8 ef3d ac35 a6bd 2f0f 11bc
000000d0: 2f14 26bd fd99 eabd a2ee 9bbd ee21 eb3d
000000e0: 2848 9bbc 2ef0 ce3d d264 c8bb afb4 47bd
000000f0: 5d7c 85bd 80ef 8d3d 33e7 85bd 7c43 823d
-0.09972291 0.10360643 0.14720197 0.0071928343 0.0512835 0.09833263 0.12230812 -0.019503538
0.067952424 0.0045766532 -0.022185516 -0.10760757 0.0779128 -0.058946226 -0.14487968 0.03452997
-0.102189004 0.035790168 0.13511813 0.04080482 0.1012166 0.015640147 0.08159064 0.05380131
0.046291023 0.13496163 0.08154571 -0.030955 0.15809608 -0.01822735 0.020465404 -0.046372116
0.0518658 -0.08978254 -0.06891117 0.09045905 -0.07368591 -0.02879168 0.012095233 0.12626871
-0.04576361 0.095563054 0.088326395 0.03434359 -0.15301797 0.14699043 0.016690833 -0.0373614
-0.017078444 0.11717269 -0.08115706 -0.008853718 -0.040546592 -0.11455152 -0.07613875 0.11481081
-0.018955305 0.101044044 -0.0061155343 -0.048756298 -0.06517861 0.069304466 -0.065382384 0.06360528

module.model.4.weight f4 [1, 64]
00000000: 0010 a73d 8660 10bd 401f 9e3d b00f ed3d
00000010: 2212 adba a0ef 183c 20df 55bd 8a38 8cbb
00000020: e0ab a7bb 1425 b33d 55a8 fdbc 8683 cd3d
00000030: 8a62 babc 9ff3 773c 18d6 59bc d47c 45bd
00000040: 70f8 0dbc a4ef bebb 483e d13d e604 3dbd
00000050: f85f abbc 0f5e 8fbd d478 0e3c 1d8c b1bc
00000060: 3a7c ac3b 866a 833c 19e1 c5bd 18f2 0c3d
00000070: 3e03 ce3d bf8d 56bd b0eb 383c b8bf 1abc
00000080: 9ee4 513b c74e cabc ca94 9cbd 0e07 4b3c
00000090: aaed a3bd b10d 4d3d 03a8 fc3b a46c 7b3d
000000a0: b81d afbc 7e17 cb3d 20b0 edbc 54d0 46bd
000000b0: 693a a5bd 175a 533d 21cc 44bb e062 71bd
000000c0: a561 573d bee9 6e3d c92b 8dbc 7319 94bd
000000d0: 6cc1 4e3d 8b88 1bbb 5f30 973d 6cfc 67bd
000000e0: 60b5 48bd 78f5 73bd b618 62bd e3b5 2cbc
000000f0: 6ca3 d13c 9abe 1bbd 532d a03d 1081 8cbc
0.08157349 -0.035248302 0.07720804 0.11575258 -0.0013204257 0.009334475 -0.05221474 -0.004279201
-0.0051169246 0.087473065 -0.030964056 0.10034852 -0.022752065 0.015133767 -0.013295673 -0.04821475
-0.008665189 -0.005826907 0.10216957 -0.04614725 -0.020919785 -0.07000362 0.0086958 -0.021673257
0.0052638324 0.016042005 -0.096620746 0.034410566 0.10059212 -0.052381273 0.011286661 -0.009445123
0.0032027136 -0.024695767 -0.07645567 0.012391819 -0.08004315 0.050061885 0.0077104582 0.061382905
-0.021376476 0.0991659 -0.029014647 -0.04853852 -0.080677815 0.05159959 -0.0030028897 -0.058932185
0.052583355 0.058328383 -0.017232792 -0.072314166 0.05047743 -0.002373251 0.07382273 -0.056637213
-0.049001098 -0.05956027 -0.055199347 -0.010541412 0.025590621 -0.03802357 0.07821145 -0.017151386
