src/estimator/saved_models/distance_regressor.pt (torch, 23897 bytes, 5 tensors)

module.model.0.weight f4 [64, 13]
000000 a9 5e ed 3d c1 e9 60 be 7d 2c 21 3d be ca 39 3e
       0.115903206 -0.2196417 0.039349068 0.18143746
000010 52 13 a7 be 16 41 cd 3c 0e e1 c1 be fc 3f bb bd
       -0.32631928 0.02505545 -0.37867016 -0.091430634
000020 35 50 5b be 02 ef c9 be 2d 12 85 3c 6d ca 21 bd
       -0.21417315 -0.3944016 0.016244018 -0.03949969
000030 55 47 a9 3c 12 bf f1 3d 2b 72 fd bd 19 36 36 3e
       0.020663897 0.11804022 -0.123752914 0.17794074
000040 6b fe 04 3e a5 d0 96 be 8c cf 10 bd fb 50 6e 3e
       0.12987678 -0.29456058 -0.035354182 0.23273079
000050 30 b1 10 3b f2 fb f3 3d bf 1b c7 bc e0 83 55 3f
       0.0022078268 0.11913289 -0.024305223 0.8340435
000060 de 81 f2 3d 88 5f 94 3c 02 ac 31 3e 74 5d 9e bd
       0.118411765 0.01811196 0.17350772 -0.077326685
000070 21 3b d5 bc f1 39 bb bd 34 35 01 3e ab c2 76 be
       -0.026029171 -0.09141911 0.12617952 -0.24097697
000080 fa 89 11 3e 0f 82 ce 3d 65 58 7e 3e f6 5e 86 be
       0.1421279 0.100834005 0.24838407 -0.26244324
000090 cc cf 53 3e 75 cc 7f 3e 2e 52 da bd a2 d3 43 bd
       0.20684737 0.24980338 -0.10660206 -0.04780925
0000a0 50 ad 6f 3e 65 60 ae bd 9e 9c fe bb 96 cb 3c 3e
       0.23405957 -0.085144795 -0.007770135 0.18437037
0000b0 d4 5f 64 3e c4 3f c7 bd 25 54 5b 3d e6 c5 0e 3e
       0.2230218 -0.09728959 0.053547043 0.1394268
0000c0 7d af 04 3d c9 9a b0 3e 96 c2 5a 3e f4 f4 91 3d
       0.03239392 0.34493092 0.21363291 0.07126799
0000d0 bf 2a d2 3d 05 ce e0 bd 94 4a f1 3d a5 50 d6 3d
       0.102620594 -0.10976795 0.11781803 0.104646005
0000e0 20 ec 8c 3e d3 cf 9c bd 92 79 e4 3d 85 1f 69 3e
       0.275239 -0.07656827 0.11156 0.2276593
0000f0 39 1f 01 3d 9f 83 5a be 64 f7 f5 3b cd 0d 65 3e
       0.031523917 -0.21339272 0.007506298 0.22368546
000100 ca ad 3b 39 f7 3b 30 3e 80 81 74 3e ca e1 0c 3e
       0.00017898451 0.17210375 0.23877525 0.13758007
000110 23 d0 34 3e d6 7b 7d 3d 81 79 39 be 2f 65 4c 3d
       0.17657523 0.061885677 -0.18112756 0.049901184
000120 aa 55 53 bd a8 66 8a 3e 7e 8c 26 3e d0 0e 3e be
       -0.051595367 0.27031446 0.16264531 -0.18560338
000130 93 ea 1f be 9a 9d 8c bd 08 38 8b bd b7 20 77 3d
       -0.15616827 -0.068659976 -0.067977965 0.060333934
000140 c0 2a 53 3c 3e 50 0f 3e a6 43 86 be 8f e9 cd bc
       0.01288861 0.13995454 -0.26223487 -0.025135783
000150 b6 14 0c bd 45 00 0c 3c 73 f8 a9 bc fc a5 7f 3e
       -0.03419944 0.008544986 -0.020748353 0.24965662
000160 a8 02 7f be 42 93 3a be 98 f7 85 be d5 40 06 80
       -0.24903357 -0.18220237 -0.26165462 -5.7427e-40
000170 9e 37 a5 bb 39 d2 9c bc 3a e7 be bc af bf e8 b4
       -0.0050420305 -0.01914321 -0.023303617 -4.3352836e-07
000180 0a 62 05 00 dd 5e 05 00 cc b9 05 80 22 a0 05 80
       4.94347e-40 4.93208e-40 -5.25829e-40 -5.16622e-40
000190 cf fb 05 80 79 f9 05 80 d5 59 05 80 2a 59 05 80
       -5.4951e-40 -5.48671e-40 -4.91403e-40 -4.91164e-40
0001a0 28 e9 17 3e a4 f8 a6 3c 9d 3d 28 be 11 b8 81 be
       0.14835036 0.020382233 -0.16429754 -0.25335744
0001b0 69 28 69 3e db ab 90 3c c6 c0 2e be 52 67 42 bc
       0.22769322 0.017660072 -0.17065725 -0.011865454
0001c0 d1 50 e6 3c 74 91 36 bb 31 e1 e6 3d 93 cc 4e bd
       0.028114708 -0.0027857693 0.112734206 -0.050488066
0001d0 75 80 8c be 9b 14 fb bc d5 f5 fd bc 87 a8 d3 bc
       -0.27441755 -0.030649474 -0.03100101 -0.025837196
0001e0 bc ee e1 bc 2d b1 b0 bc f1 73 f7 97 23 68 05 80
       -0.027579658 -0.021568859 -1.5991269e-24 -4.96535e-40
0001f0 53 61 05 00 6f 75 06 80 ab 64 05 00 df 59 05 00
       4.94091e-40 -5.9314e-40 4.9529e-40 4.91417e-40
000200 ff aa 05 80 95 57 05 00 2d 09 1e be f4 02 55 3e
       -5.2052e-40 4.90596e-40 -0.15433188 0.20801908
000210 5c d6 4b 3e 56 97 96 bd 10 01 d5 be 54 40 89 bb
       0.1990599 -0.07353084 -0.41602373 -0.0041885767
000220 6e 2d 6b 3c 5e 39 d3 3c 25 48 00 bd a3 39 3d bd
       0.014354093 0.02578419 -0.031318802 -0.046197545
000230 ce 13 62 3e ea 7d a4 be 66 76 5b 3d 9e 16 d6 bd
       0.22077867 -0.32127315 0.05357971 -0.10453533
000240 19 14 1d 3d fe 71 74 3e 0d a0 49 3e 81 2d e7 3e
       0.038349245 0.2387161 0.19689961 0.45151904
000250 56 4d 06 3e 97 bf a2 bd 6d 54 45 3c b3 2c b4 bd
       0.13115439 -0.07946699 0.012044054 -0.08797588
000260 06 c4 97 be 2a aa f6 3e db c5 0c be a8 f3 ec 3d
       -0.29641742 0.481767 -0.13747351 0.11569911
000270 0c f4 e7 3d e3 48 39 3e 69 cb 20 3e 29 76 86 be
       0.11325845 0.1809421 0.15702595 -0.26262024
000280 60 b4 d8 3d c2 32 31 3e 5f 64 58 be 8d 68 26 be
       0.10581279 0.17304519 -0.21132039 -0.1625082
000290 d6 e0 8b bc 3f d0 a2 bc 8f 3b ba be 18 3f 7a 3e
       -0.017074984 -0.01987469 -0.36373565 0.24438131
0002a0 4e fb d0 bd 2b f3 36 3e 1e 2f d3 3d e3 15 02 3e
       -0.102041826 0.17866199 0.10311721 0.12703662
0002b0 5d 7e 8c be 5b 49 44 be 6d c7 62 be 52 aa d1 3d
       -0.27440158 -0.19168608 -0.22146387 0.10237564
0002c0 2c 4e cf bd d9 a8 0a 3d 84 79 57 3c af 74 08 3e
       -0.10122332 0.033852432 0.01315153 0.13325761
0002d0 47 d4 03 3e ab 8b a2 bd f3 ce 82 3d b9 a3 1c 3e
       0.12873946 -0.07936796 0.06387129 0.1529683
0002e0 d3 d2 7e be 87 07 28 3b 35 0a a5 be 5c 6d 88 bd
       -0.2488511 0.0025639252 -0.3223435 -0.06661484
0002f0 d2 88 03 be ea 73 38 be 90 8e 1d 3c 6e d2 07 3e
       -0.12845162 -0.18012968 0.009616509 0.13263866
000300 45 60 04 be 5a c3 0f 3e 8a 49 b5 3b ec e7 10 3e
       -0.12927349 0.14039364 0.005532448 0.14150971
000310 a2 2b 6f 3e 07 5a 7a be 51 b8 68 be 24 b1 38 3e
       0.23356488 -0.24448405 -0.22726561 0.18036324
000320 ba 4d 3b 3e e6 6b 2b 3d 1f 2b 42 3e 75 f6 5c be
       0.18291369 0.041850947 0.18961762 -0.21578391
000330 f3 b8 45 bd 19 0e 91 3c df 69 98 3c 2f 9b cd 3c
       -0.048272084 0.017706918 0.01860517 0.025098411
000340 f7 50 4f 3e 30 35 00 3e cb bd 70 be e3 b2 20 3e
       0.2024573 0.1252029 -0.235099 0.1569324
000350 c3 4a 13 be 40 34 bd 3d 2c ca 6b 3d ad cc 7c 3e
       -0.14383988 0.092384815 0.057565853 0.24687453
000360 44 3a 5f 3e 37 f0 4e be ba 9a d9 3c 38 7d 14 3e
       0.2179957 -0.20208822 0.026563037 0.14500892
000370 ea 19 48 3d 33 52 5e 3e 30 c3 8b be 5c ba 05 3e
       0.04885284 0.21711044 -0.27297354 0.13059372
000380 2f 71 6d bb a6 c2 1b be 07 d1 04 3e 9b 26 54 3e
       -0.0036230793 -0.15210971 0.12970363 0.20717852
000390 00 ae 59 3d 5f 84 02 bf 97 ba dd 3e 0b 6d 05 00
       0.053144455 -0.5098323 0.4330642 4.98295e-40
0003a0 db 78 ef be 26 8e 9e be af f3 1e 3c 02 74 9b bc
       -0.46771893 -0.30967826 0.009701653 -0.018976215
0003b0 d5 cc 6f 3e a7 ae 53 bb 36 e6 55 be 81 8f 64 3b
       0.23417981 -0.0032300146 -0.208886 0.0034875574
0003c0 92 b8 0d be 20 bf b6 3e b9 11 17 be 04 e4 c1 be
       -0.13839939 0.35692692 -0.14752854 -0.37869275
0003d0 36 d5 95 3f c6 98 85 3f 1b 09 e5 3e e8 53 28 bd
       1.1705692 1.0437248 0.4473351 -0.041095644
0003e0 3c ed 05 3d 9d 9b 66 bd 26 db 66 3d 58 26 f9 3e
       0.032696947 -0.05630075 0.05636134 0.48662066
0003f0 f1 d2 98 3d 83 42 fe 3d 1b 68 52 bd 72 5a 2c 3c
       0.07462109 0.1241503 -0.051368814 0.010519611

module.model.0.bias f4 [64]
000000 e6 30 b0 bd eb 14 53 3e 0e 0a 53 be cc 7f 40 be
       -0.08603077 0.20613448 -0.20609304 -0.1879875
000010 e6 3b bb 3d cc 45 a1 be fe d5 96 bd 97 5d 05 00
       0.09142284 -0.31498563 -0.073650345 4.92751e-40
000020 b2 fb 02 bc 43 48 9d a9 42 1f 8b 3e c6 9a 1b 3b
       -0.007994579 -6.984736e-14 0.27172285 0.0023743375
000030 9d fd 2e be 21 6e c0 3d ed ac 9c be 69 be 00 3e
       -0.17088933 0.093960054 -0.30600682 0.12572636
000040 0c 7f c4 3d 1e 54 a9 bc 77 06 f2 bd 14 03 77 bd
       0.09594545 -0.020669993 -0.11817639 -0.06030567
000050 80 21 26 3e ba 1d 60 3d cc 36 49 be fb 48 8a 3d
       0.16223717 0.05471585 -0.1964981 0.06752201
000060 f0 47 a0 bc 88 19 5b b8 28 29 ee 3d bb c1 98 be
       -0.019565552 -5.2237447e-05 0.11628944 -0.29835305
000070 b1 c4 b8 3e b4 20 77 3e 3b 2c 0b b7 cf 6a 99 be
       0.36087564 0.24133569 -8.295344e-06 -0.299643
000080 6e 6f 9f bd 16 d6 cb bb 9b c0 7c be 2d bf d9 bd
       -0.077849254 -0.0062205894 -0.24682848 -0.10632167
000090 5d 62 c6 ba eb 30 b9 bd e7 69 94 3b e7 f9 4d be
       -0.0015135516 -0.090425335 0.004529226 -0.20114861
0000a0 e4 c7 8f be 82 4c 4b bd 93 60 05 80 9d 6b 28 3e
       -0.28082192 -0.04963351 -4.93822e-40 0.16447301
0000b0 3d 9b 3c 3e 5a 8e 01 3d 22 98 c9 3d c3 62 05 00
       0.18418594 0.031629898 0.0984347 4.94607e-40
0000c0 16 74 19 be d8 3a 07 3e a3 b3 04 bc 39 e1 80 be
       -0.1498569 0.13206041 -0.008099469 -0.2517183
0000d0 32 3e 38 3e 4e ac 6e 3e 33 65 2c be 5d d2 3a 3e
       0.17992476 0.23307917 -0.1683548 0.1824431
0000e0 5a 30 ea 3b 8a 38 a6 3d 34 50 93 3c 4a b4 30 be
       0.0071468772 0.08116253 0.01798258 -0.17256275
0000f0 f1 dd ed 3d d9 c8 46 3e 01 c2 50 be 3d d7 7b 3e
       0.116145976 0.19412555 -0.20386507 0.24593826

module.model.2.weight f4 [64, 64]
000000 0d 6b 05 80 8f 79 05 00 bc 58 05 00 7c 1c 5f 3d
       -4.9758e-40 5.02784e-40 4.9101e-40 0.054470524
000010 67 94 06 80 29 18 e0 bd e1 52 c5 bd 22 66 06 80
       -6.0425e-40 -0.10942108 -0.096349485 -5.87651e-40
000020 86 58 05 00 0a b2 06 00 b9 84 05 00 bf 0d 28 3d
       4.90934e-40 6.14881e-40 5.0679e-40 0.041028734
000030 73 33 33 3c 35 8a 05 80 a2 8e 68 3d 8d 09 96 bc
       0.010937559 -5.08757e-40 0.05677665 -0.018315101
000040 f8 92 fb bc f0 7b 05 80 b5 7c 05 80 80 22 03 ba
       -0.030709729 -5.03638e-40 -5.03914e-40 -0.00050023943
000050 4b df 72 bd 78 a5 5f ba c7 4a 8c bb 2e 16 38 bd
       -0.05929498 -0.00085314317 -0.004281375 -0.044943027
000060 18 8e 05 80 50 f0 05 80 8f 91 8f 3d 6b 30 84 3c
       -5.10151e-40 -5.45385e-40 0.07010185 0.016136369
000070 22 7f 86 bb e0 72 05 00 8d 71 05 00 a5 af b0 bc
       -0.004104511 5.00387e-40 4.99912e-40 -0.021568129
000080 55 78 05 00 ce 61 05 80 f4 f7 92 3d e0 60 05 80
       5.02344e-40 -4.94263e-40 0.071761996 -4.9393e-40
000090 25 5d 05 80 ca 51 b9 bc 26 0d 31 3d f9 2d dd ba
       -4.92591e-40 -0.022622008 0.04322543 -0.0016874663
0000a0 66 c9 05 80 84 99 05 80 01 5e 05 80 00 74 06 00
       -5.31426e-40 -5.14249e-40 -4.929e-40 5.92626e-40
0000b0 9c cc 64 bd 49 9b a9 b8 fb ab a4 3d e4 67 05 00
       -0.055859193 -8.087472e-05 0.08040615 4.96446e-40
0000c0 a5 68 05 00 9b f6 2d 3d 37 69 05 00 bb 3a 42 3c
       4.96717e-40 0.04247151 4.96921e-40 0.011854823
0000d0 1d 7e 06 80 31 bb 18 bd 3c 17 ac bd 2d 71 05 00
       -5.96254e-40 -0.037287895 -0.08402869 4.99777e-40
0000e0 f0 38 07 3c 47 d0 05 80 ba 5e 05 80 39 7a 13 3d
       0.008253321 -5.33893e-40 -4.93159e-40 0.036005232
0000f0 1a 4a 92 bd 54 89 f2 38 a9 72 05 00 34 5f 05 80
       -0.0714304 0.000115650386 5.0031e-40 -4.9333e-40
000100 7e 35 d3 3c 9a fe e0 ba fe 9c ff bb bf 25 43 3d
       0.025782343 -0.0017165721 -0.0078006973 0.04764342
000110 6b 89 34 3d aa f6 97 3d bf a9 5a 3d 9f 6f cb 36
       0.044076364 0.07420094 0.05338454 6.062866e-06
000120 f0 1d 8e bb 1f 10 b8 bb 35 76 b6 3d c9 20 78 3d
       -0.004337065 -0.005617156 0.08909265 0.06057814
000130 cd 90 b7 bd 9e 87 23 3e 0c 86 c9 bd f7 4a 85 bd
       -0.089631654 0.15969703 -0.098400205 -0.06508439
000140 cc e8 e4 3d 7a 1e 2e bd 5c 53 05 ba e6 0b 9c bc
       0.11177215 -0.042509533 -0.0005085969 -0.019048642
000150 b2 cf da bd bb 4c 1b be 68 55 11 3e 76 81 ae bc
       -0.10684146 -0.15165989 0.14192736 -0.021301966
000160 cf 59 58 3d f0 4d 6e 3c cf 7a 42 bd 42 85 2a be
       0.052820023 0.014544949 -0.0474804 -0.16652396
000170 e0 f5 00 be 14 94 5a 3b 4e 7b 9c 13 45 3d 1b 3e
       -0.12593794 0.0033352422 3.9501524e-27 0.15160091
000180 cc ed 92 bd d6 95 a8 bc 30 ef a5 3d 5d c5 ae bd
       -0.071742624 -0.02057926 0.08102262 -0.08533738
000190 78 ad 4b 3c 0b e6 49 3d 60 10 23 bd d0 48 0c 3e
       0.012431495 0.04929165 -0.03981054 0.13699651
0001a0 af a1 ff 3d 70 bb 05 00 92 63 cb b8 de 05 e8 3b
       0.124820106 5.26417e-40 -9.698341e-05 0.0070807775
0001b0 54 de 4e 3c 43 b6 4c 3d 34 56 3b bd 0f 63 05 00
       0.012626249 0.049978506 -0.045736507 4.94713e-40
0001c0 f5 6c a2 3b f7 85 6a 3d 50 03 f8 3c 10 69 52 bc
       0.0049568363 0.057256665 0.030275017 -0.012842432
0001d0 4a b5 74 bc 1b 77 3f 3c 27 cd 80 bd a4 24 94 bc
       -0.014935801 0.011686112 -0.0628913 -0.018083878
0001e0 8d b1 0b bd 9c dc 1a be f8 ba f1 bd 06 b3 7a bd
       -0.034104872 -0.15123218 -0.118032396 -0.061205886
0001f0 5b ef 80 bd 94 78 15 bc 6f 74 47 3d cc fa f9 bd
       -0.062956534 -0.009122986 0.048695024 -0.12206039
000200 a8 47 5e 3d 53 32 c1 bd a0 6a b0 3d a5 98 02 be
       0.054267555 -0.09433427 0.08614087 -0.12753542
000210 9d 76 50 bd 85 07 a2 3d e5 35 1e bc 8c ba 05 80
       -0.05089437 0.079115905 -0.009656404 -5.26098e-40
000220 00 61 e4 3d b0 57 05 80 28 14 9d bd c0 7a a9 3c
       0.11151314 -4.90634e-40 -0.0766986 0.020688415
000230 68 85 00 be f0 ce 5e 3d 56 30 08 3c ee 0f 5e bb
       -0.1255089 0.05439657 0.008312305 -0.0033884007
000240 49 f1 36 bd 33 ce 59 bd ef 14 85 bd 0d f5 89 bc
       -0.0446637 -0.053175163 -0.064981334 -0.016840482
000250 1d 66 8b bd d3 b5 8f 3c bf 72 ab 3c 4b b1 b0 3d
       -0.06806586 0.017542755 0.020928739 0.08627566
000260 6b 36 99 be ba 58 05 00 26 c0 8c 3d 5e 90 c3 3d
       -0.2992433 4.91007e-40 0.06872587 0.0954902
000270 2b 8c 85 3d 16 c4 c5 bd 22 62 05 80 4c 3d 9e bd
       0.065208755 -0.09656541 -4.94381e-40 -0.07726535
000280 17 7f 5b bd 1b 5e 05 00 c4 f9 c3 bd 9a bc 81 3b
       -0.053588 4.92936e-40 -0.095691234 0.0039592506
000290 f4 ed e4 39 ac 6e ab bc 03 96 2f bc 41 fc 44 bd
       0.00043664838 -0.020926796 -0.010716918 -0.04809213
0002a0 03 36 a7 bd ad 90 5d 3d 03 b0 05 80 2b 5a da bd
       -0.08164599 0.05409305 -5.22319e-40 -0.106617294
0002b0 c1 51 87 3d ed 54 c4 bd d1 2e 06 3c 27 6d 05 00
       0.0660739 -0.09586511 0.008189873 4.98334e-40
0002c0 cd 64 c0 3c 68 44 7b bd 9f c4 b4 3c e2 36 66 3c
       0.023485566 -0.061344534 0.022066412 0.014051171
0002d0 6d cf b8 bd 0b a0 2d 3d 1d b6 3f 3d 1c c5 03 be
       -0.09023938 0.042388957 0.046804536 -0.1286816
0002e0 14 95 9c bd dc 58 cd 3e f0 3f 35 be c8 7d dc 3d
       -0.07645622 0.40106857 -0.17700171 0.10766178
0002f0 ae d1 70 3d bd e9 8b 3d 22 5e 42 3c d7 b3 5c 3d
       0.058793716 0.068316914 0.011863263 0.053882446
000300 72 d0 a3 3d bf ba 9d 3d 39 11 bc 3d db c0 e9 bd
       0.07998742 0.077016346 0.091829725 -0.114137374
000310 eb e6 1f 3d e8 84 83 3d dd 9a bd bd 2c c2 c5 3a
       0.03903858 0.06421834 -0.092580535 0.0015087775
000320 b2 82 1c bc 8c d1 4c bb 4b 48 46 3e 4b 07 cf 3c
       -0.009552645 -0.003125283 0.19363515 0.025272032
000330 d0 b9 ed bb 07 13 7f 3d 81 84 7f bd 18 27 b0 3c
       -0.0072548166 0.062274005 -0.062382225 0.021503016
000340 85 6f 8f bd ae 67 16 bd 42 c8 df 3d 7d 43 5a 3d
       -0.070036925 -0.03671997 0.10926868 0.053287018
000350 d8 5d d4 bd a6 bb 64 3c bc ea fa 3d bc 33 04 3e
       -0.10369462 0.0139607545 0.12251803 0.1291036
000360 44 eb 0a 3e 4e 6e b1 3c a1 c2 87 3d 00 7b e1 bc
       0.13566309 0.021659043 0.066289194 -0.027524471
000370 09 02 59 3c ff 85 15 3d e5 21 1b 30 c7 2e af 3d
       0.013245114 0.03650474 5.643684e-10 0.08553844
000380 d9 91 41 bd ca c5 c5 bc d7 11 58 3d 26 e2 60 3c
       -0.04725823 -0.024142165 0.05275139 0.013725793
000390 6e 3e 95 3b 22 a2 c9 bd d9 5b da bd ca 7f 93 3d
       0.0045545613 -0.098453775 -0.1066205 0.07202108
0003a0 c2 db 71 3c b0 a2 d1 3d 19 6c 27 bb 6d ab 0f bd
       0.014761867 0.10236108 -0.002554661 -0.035075594
0003b0 6b bb 31 bd 6a 34 da 3d 60 2c f4 3c 55 62 05 80
       -0.043391626 0.106545284 0.029806316 -4.94452e-40
0003c0 e8 9e c0 bd 31 55 76 bd 55 c9 a8 3c 95 a4 08 bc
       -0.09405309 -0.06013984 0.020603815 -0.008340021
0003d0 a8 93 f0 3b 77 b0 10 3e 81 ec a3 bd 30 68 8e bd
       0.0073418207 0.14129816 -0.08004094 -0.06953466
0003e0 73 49 ab 3c 49 6e 0f be 11 88 0a be 3b c0 88 3d
       0.020909047 -0.14006914 -0.13528468 0.0667729
0003f0 5a 8b db 3d ff 5b b9 3c b1 59 02 bd e8 6f d7 bd
       0.107199386 0.022626875 -0.031823818 -0.10519391

module.model.2.bias f4 [64]
000000 c8 1e 2a ac 56 fd bf bd 19 35 dd bc 91 71 be bd
       -2.417554e-12 -0.09374492 -0.027002858 -0.09299005
000010 85 84 78 bd 41 57 05 00 2d 5a 92 3b 25 7a 47 3d
       -0.060673255 4.90478e-40 0.004466316 0.04870047
000020 2e 75 2c 3b 2f c5 24 bc 7f 14 ec bd 40 cd 27 3e
       0.0026314962 -0.010056778 -0.11527347 0.1638689
000030 a8 bc 37 ba 03 77 0a be 95 c6 20 bc 7d 88 f9 bb
       -0.0007009008 -0.13521962 -0.009812971 -0.0076151476
000040 55 ba cc bc f4 05 c3 3c 05 85 03 3e 85 3e 8b bd
       -0.024991194 0.02380655 0.12843712 -0.06799034
000050 58 1a 94 3d 06 42 58 3d 6f 0e c0 3d cc 61 a6 3d
       0.07231587 0.05279734 0.09377753 0.08124122
000060 13 99 a0 3d 97 85 f8 b8 9e 10 b0 95 20 d9 09 3d
       0.078416966 -0.000118504446 -7.111205e-26 0.033654332
000070 c9 8b a5 3d 19 1f 0e be f2 66 85 3d 8e 4e 27 bb
       0.080833025 -0.1387905 0.06513776 -0.0025529
000080 dc 58 05 00 fd 0b f9 3c 81 61 a1 3d 37 29 81 3d
       4.91054e-40 0.030401224 0.078799255 0.06306689
000090 a2 30 c2 3d 41 6b 0f bc f9 1c 15 bc df 36 53 3d
       0.09481932 -0.008753599 -0.009101146 0.051566
0000a0 e1 de 60 bd d0 d2 3d 3d 93 65 a9 bd 99 d9 6b 3d
       -0.054900054 0.046343625 -0.08271327 0.057580564
0000b0 07 d1 c7 3d f1 33 43 bd cc 50 11 be ae 67 c9 3d
       0.09756666 -0.047656957 -0.14190978 0.098342285
0000c0 ca 4d 6e bd 86 1c 02 3e 0a 0e 03 be 18 ed bf bc
       -0.058179654 0.12706193 -0.12798324 -0.023428485
0000d0 0e 1e c2 3d ae 34 6b a3 65 cb cf 3b be e1 c6 b5
       0.09478389 -1.2750531e-17 0.006341385 -1.4817849e-06
0000e0 19 9d a3 3d 63 6d 05 80 32 4d 71 bd 46 45 91 3d
       0.079889484 -4.98418e-40 -0.05891151 0.07093291
0000f0 7b f8 a3 bc 17 5b 05 00 c8 9e 5e bd 00 67 00 bd
       -0.020015946 4.91854e-40 -0.054350644 -0.03134823

module.model.4.weight f4 [1, 64]
000000 4a 73 d4 bb 22 01 98 bc ea 15 34 bc 99 e1 d6 bd
       -0.00648347 -0.018555228 -0.010991553 -0.10492248
000010 2a c0 38 bd 72 ca 88 3c 22 8d 8c bc 98 d9 8c 3c
       -0.045105137 0.016698096 -0.017157141 0.0171936
000020 c0 0b aa 3d b7 2c b0 bc 5d 8a 41 bd bb 9f 8a 3d
       0.083030224 -0.021505697 -0.047251094 0.067687474
000030 06 01 96 bc ea 63 57 bc 8e cd 15 bd db 5d da bc
       -0.018311035 -0.01314638 -0.036572985 -0.026656082
000040 28 74 b7 3d 7d 66 4a bd f2 08 97 3d a8 16 d5 bd
       0.08957702 -0.049414147 0.07374753 -0.10404712
000050 6c 17 8e bd 4e a7 10 3d fc 83 b2 3d 64 69 8b 3d
       -0.06938061 0.035315804 0.0871658 0.06807211
000060 a1 fd c6 bd 41 91 a3 3c 1c 5d 05 00 39 36 0f 3c
       -0.097163446 0.019966723 4.92579e-40 0.008740955
000070 d0 31 9e 3d c1 60 37 be f6 b6 b4 3b a4 1a d2 bc
       0.07724345 -0.17908002 0.0055149747 -0.025647469
000080 bc 3e a0 3c 03 70 8b bc a8 df 3d bd 17 77 03 bd
       0.019561164 -0.017021185 -0.046355873 -0.032095995
000090 57 ac 07 3e 06 e6 ed 3d 4f 20 9e 3c 6f b8 84 3d
       0.13249336 0.11616139 0.019302515 0.064804904
0000a0 74 73 60 3d 0f dd 90 3d 3e b6 1b be 93 48 6d 3c
       0.054797605 0.070734136 -0.15206239 0.014482635
0000b0 8f a8 26 3e 29 05 89 bd 1b bb 8b bc 27 93 0c 3e
       0.16275238 -0.06690437 -0.017056992 0.13728009
0000c0 97 21 f0 3c 67 b4 a3 3d 8e ee 61 bb 91 32 94 3c
       0.029312892 0.079933934 -0.0034474465 0.018090518
0000d0 ca 8a 96 bd 07 1d 60 3c 2e d2 40 bd fc 40 63 bb
       -0.07350691 0.013678796 -0.047075443 -0.0034676185
0000e0 c7 7c 10 bd 1c ec a9 38 78 3d 99 3d 60 98 21 bc
       -0.035275247 8.102527e-05 0.07482427 -0.009862989
0000f0 f7 a5 06 3e c6 4a 9f 3c bd 91 ca bc 80 c0 32 3c
       0.13149248 0.019444834 -0.024727697 0.010910153
