src/estimator/saved_models/distance_regressor.pt (torch, 23897 bytes, 5 tensors)

module.model.0.weight f4 [64, 13]
00000000: f36a fc3d c985 8dbd 7a67 11be b069 113e
00000010: 3156 2d3e e1da 713e eb48 123e 8e68 823d
00000020: 13a9 02be a4ee 86be abe8 b43e 6824 8b3c
00000030: 8092 253e 5c4b 943c 95f5 d7bc 5237 73be
00000040: 13e8 793e 6aab f53e 4b6c 3c3d 86e5 513e
00000050: b517 463b d1b9 cc3e 9041 723d 655e 61ba
00000060: 3de7 19be bbc4 e5bd 599d 223e 70c7 48be
00000070: 1a03 38be 7e2a 763e 1cf5 9b3e 1450 7abe
00000080: 7ea0 003e ca69 ecbc 0f24 193f e919 0fbe
00000090: 79c6 d2bd ca38 00be ecb6 1bbe 359e f3bc
000000a0: e6cf f3bc 6ba2 f3bc d7c8 f3bc 3db4 f3bc
000000b0: 0b02 f3bc 9b2c eebc 7ba7 e5bc b8cd f1bc
000000c0: fc90 deab 8a80 99bc 7e73 d1bc 437f eabc
000000d0: 1721 783d 7a1a af3d baf7 323d 9641 8abe
000000e0: f201 953e 3ff5 32bd 9621 9cbe d240 3a3e
000000f0: 10a3 57bc d949 123e 0ad1 a83e 88c2 853e
00000100: 2bf3 473b 36fc 0fbe 1267 083e 630b 783e
00000110: 289a aabd 663f a13e e728 d23d 101e cfbd
00000120: c6b1 cd3d 0769 d9bd 104a d9bd 9fbc 513e
00000130: 4ce8 863e 3953 d43d 110f 4fbe fa6a 413e
00000140: 6dec 09be d50b 6cbe 0ac3 cdbd 144a 8dbd
00000150: b37c 0500 f6f9 833a 5268 0500 3285 0500
00000160: 575a 803e 10b7 b5bd 7b76 35bd 0418 a0bd
00000170: 006a ae3d a630 863e f8da a0bc 1163 6f3e
00000180: 505a 88be 5ff1 2c3e b3bd 5e3e b9e2 183e
00000190: 8210 4f3d 0814 f5bd be6a 0abe 2591 37bd
000001a0: 3cce 5e3e 7e3d 40be 3a91 8ebc d1ba 6a3e
000001b0: b5ab 67be 8af9 a43e 242c da3d 64d5 aa3d
000001c0: 1f5e 243e 91b1 a6bd b4fe a3bd 0820 4abc
000001d0: 4d26 083e 7525 73bc 4912 c73d b973 4cbd
000001e0: 411c bfbd 2c90 72be 380e f63d d160 893e
000001f0: cfee 9cbd e1e6 42be 4782 37be 11c5 47bd
00000200: f2a0 87bd a18e 9cbe e708 d1bd e4e6 88be
00000210: fc91 b6bd bfc8 803e fa38 46be 6e36 823e
00000220: 45f4 643e 6362 fdbd 51b3 1c3e 6d2c 02be
00000230: 89ba 2880 0897 563e ae38 a23c 9f3b 94ba
00000240: 32f7 feba a21a 90b4 bec8 b0b7 b2fa 0ba7
00000250: 5313 9727 dc8b 6523 4f1e 8ea3 2dd1 9425
00000260: 1b62 2d24 b561 baa4 6786 9ca5 ffa7 1225
00000270: b449 f1bc 36f3 dcbc f262 efbc e4b2 e3bc
00000280: 426e e1bc 05c8 33bb 476e b0b4 64c6 09b4
00000290: 6aeb ae33 4e74 8e19 7971 5032 ecf5 be33
000002a0: 341a 5734 f08a d83d edf6 c9bd ec0f 45be
000002b0: b654 903e 5c38 acbd 8478 d03d 36c8 48be
000002c0: 372d c7bd c08e 233e 8343 febd 1a90 68be
000002d0: de7f 6cbe 7be7 2cbc 8c0a 3d3d 2603 1c3e
000002e0: 4411 1b3e 6ce5 7e3e 2e52 c8be f39b 58be
000002f0: 880e 65be 7afe 9cbe 725b 103e 5e1e c5bd
00000300: cf49 bcbe 112e 01be cd27 8e3c 4e68 dabc
00000310: 8563 dabc d75f dabc 6665 dabc 9a39 dabc
00000320: 1dca d0bc 7422 8abc f93d 0abc 99ba 97bc
00000330: 015a 1ebb 3c44 813b 83df 5fbc 3a3c 4fbb
00000340: 3256 a9bd b732 50bd 2632 7d3e a76d b2bd
00000350: 0044 b53c f926 eabc ab4b f8bd 7a8d b6bd
00000360: 6afe 493d 7100 97be 3cc0 123d 3cec e6bd
00000370: d6a4 693e 7cbc 89bd b723 843c 9ef2 2cbd
00000380: 87a7 673d ed39 d33e f720 d2bd 5798 3abe
00000390: f504 573e b3c5 903e df57 bfbd d684 953e
000003a0: fdb8 b43e 6c56 403c 8744 91bd b710 aabd
000003b0: 1068 3d3d ffc9 553e 2ee2 f23d cbd8 26be
000003c0: 9d27 713e d926 073d ef43 d23d 2acb bfbd
000003d0: 216a f3be d99e 44be cd15 6e3e 51a0 04be
000003e0: 990a f93d 9d22 5cbd 3444 3c3d 1e4d b63e
000003f0: 4159 53be a782 e53d 97cb 8b3e d776 253e
0.123250864 -0.06910283 -0.1419963 0.14200473 0.1692741 0.23618652 0.14285628 0.063675985
-0.12759809 -0.26353943 0.35333762 0.016985133 0.16169167 0.01810234 -0.02636222 -0.23751572
0.24404936 0.4798234 0.046001714 0.20497712 0.0030226533 0.39985517 0.059144557 -0.0008597135
-0.15029617 -0.11219164 0.15880336 -0.1960733 -0.17969933 0.24039647 0.3046044 -0.2444461
0.12561223 -0.028859038 0.59820646 -0.13974728 -0.10291762 -0.12521663 -0.15206498 -0.029738525
-0.02976222 -0.029740533 -0.029758854 -0.02974903 -0.02966406 -0.029074004 -0.028033962 -0.02951704
-1.581429e-12 -0.01873805 -0.025567766 -0.028625136 0.060578432 0.08549972 0.04369328 -0.27003163
0.29103047 -0.043690916 -0.30494374 0.1818879 -0.013161436 0.14285983 0.32971984 0.26124978
0.003050993 -0.14061055 0.13320568 0.24223094 -0.08330184 0.31493682 0.10261708 -0.10113156
0.10043673 -0.106157355 -0.106098294 0.2048211 0.26349103 0.10367436 -0.20220591 0.18888465
-0.13469096 -0.23051389 -0.100469664 -0.06898895 5.03911e-40 0.0010069001 4.966e-40 5.06959e-40
0.25068924 -0.08872807 -0.044302445 -0.078170806 0.08516312 0.2620899 -0.019635662 0.23377635
-0.26631403 0.16888951 0.21752052 0.14930238 0.050552852 -0.11966711 -0.13517281 -0.044816155
0.2175836 -0.18773457 -0.017403234 0.22922827 -0.22624095 0.32221633 0.106529504 0.08341482
0.1605153 -0.08139337 -0.08007565 -0.012336738 0.1329586 -0.014840473 0.097202845 -0.04991505
-0.09331561 -0.2368781 0.12014431 0.26831678 -0.076627366 -0.19033386 -0.1792079 -0.04877192
-0.06622495 -0.30577567 -0.10206776 -0.26738656 -0.08914563 0.25153157 -0.19357672 0.25432152
0.22358806 -0.123722814 0.15302779 -0.1271226 -3.740336e-39 0.20956051 0.019802418 -0.0011309272
-0.0019452332 -2.6841468e-07 -2.1074313e-05 -1.9426027e-15 4.193187e-15 1.2443731e-17 -1.5408507e-17 2.581565e-16
3.7596494e-17 -8.0830164e-17 -2.715276e-16 1.2720401e-16 -0.02945409 -0.02697144 -0.029221985 -0.027795263
-0.027518395 -0.0027432453 -3.2862792e-07 -1.2831293e-07 8.145328e-08 1.4729431e-23 1.2132994e-08 8.8922974e-08
2.0032968e-07 0.10573375 -0.098615505 -0.19244355 0.2818963 -0.08409187 0.101792365 -0.19607624
-0.09725421 0.15972424 -0.124152206 -0.2271122 -0.23095652 -0.010553236 0.046152636 0.15235576
0.15143305 0.24892205 -0.39125198 -0.2115324 -0.22368824 -0.306629 0.14097384 -0.09624933
-0.3677506 -0.12615229 0.017352963 -0.026661064 -0.026658783 -0.026657028 -0.026659679 -0.026638795
-0.025487 -0.016862132 -0.008437627 -0.018521594 -0.0024162533 0.0039449017 -0.013664129 -0.0031621591
-0.082683936 -0.050829615 0.24726161 -0.08712321 0.022127151 -0.028583037 -0.121238075 -0.08913703
0.049314894 -0.29492524 0.03582786 -0.11275527 0.22816786 -0.06725404 0.016130311 -0.042223565
0.05655625 0.4125513 -0.10260194 -0.18222176 0.20997985 0.28275833 -0.09342932 0.29202908
0.35297385 0.011739355 -0.07093149 -0.08303969 0.04624182 0.20877837 0.118595466 -0.16293637
0.23550268 0.032996032 0.102668636 -0.09364922 -0.47541907 -0.1920122 0.23250504 -0.12951781
0.121602245 -0.053743947 0.04596348 0.3560571 -0.20639516 0.112065606 0.27303764 0.16158615

module.model.0.bias f4 [64]
00000000: 756a 3c3e d25a 313e 83e9 c6bd f549 f3bc
00000010: a3d5 613d 5732 6bbe b44f a9bd 0bf4 e8bc
00000020: 4a8b 313e 5808 4f3e 2958 81be 32c2 32a8
00000030: bcea a7bb 5697 713e 290f 86be 5c90 d4bc
00000040: 2b9d 1cbe b373 ecbd 28dc 1f3e d635 bf3e
00000050: af35 a63d dcd2 8b3e 39a0 3abe e893 833c
00000060: c4e5 26be 35bc 2a3e 31bf c4bd 8740 9a86
00000070: da34 55be c148 0f3d 3acf 78bd d226 21b6
00000080: e550 523d 139f 34be 2e16 c53e e859 48b8
00000090: f096 81bd cb30 fab9 a3ae 5a3d b78b 35be
000000a0: 9a2b 83ae 0c5c aabd 67bc a9bd 007f 31bc
000000b0: bea5 38be 464c 773e 973e 9992 8ffe fd3d
000000c0: a48b 29be 9cab 203d be0b 153e 4d27 94bd
000000d0: d055 173e 4f6e cc3d 119e 8cb0 83a2 10be
000000e0: bba8 b93d a809 143d 212a 84be f9ba ec3d
000000f0: b546 a2be 5efc f13d 949a 44bd f8fb 4d3d
0.18399985 0.17319801 -0.097125076 -0.029698351 0.05513538 -0.22968422 -0.08267155 -0.028436681
0.17338291 0.20218027 -0.25262573 -9.923094e-15 -0.005124418 0.23592886 -0.2618344 -0.025947742
-0.1529433 -0.115455054 0.15611327 0.3734576 0.08115708 0.2730931 -0.18225183 0.016061738
-0.16298586 0.16673358 -0.09606779 -5.8023176e-35 -0.20820943 0.034981493 -0.0607445 -2.4013466e-06
0.05134668 -0.17638807 0.38493484 -4.7767448e-05 -0.06327617 -0.0004772007 0.053389203 -0.17729078
-5.9649355e-11 -0.08318338 -0.08287888 -0.010833502 -0.18031976 0.2415019 -9.671087e-28 0.12402069
-0.16557175 0.03922616 0.1455526 -0.072340585 0.14778829 0.09981977 -1.0231266e-09 -0.14124493
0.09065386 0.03614202 -0.25813392 0.115591 -0.3169457 0.11815713 -0.04799898 0.050289124

module.model.2.weight f4 [64, 64]
00000000: c7bc fcbd 8d5f 33be 0641 743e d379 303b
00000010: a7c4 00be c619 5d3d 72f8 793c cc3e 1bbd
00000020: fa23 5fbd 2acc 103e 4747 8d3d f836 e43c
00000030: d9a2 f1bc 4b01 b13c 632d d9bd 5e19 c3bc
00000040: b31e 98bd bad2 433c a138 273c fbe3 e3bd
00000050: e223 e5bd 30fd a0bd e9e2 883d 5b2a bcbb
00000060: ad90 603d 9b8b a73d 194d 503d bd69 0500
00000070: 89d1 b9bc 07ed 5cbd 7878 5c3d 9738 f4bc
00000080: 6dc2 bd3d 2a95 5e3d c1e1 20be 812d 393b
00000090: 1889 c8bb 73f7 433c 9155 cd3d 536c dbbd
000000a0: 11cc cebc a0bb ec3d 6047 d03c 8a99 2f3c
000000b0: 7aaa af3d af73 68bd 716f 0500 c0eb 94bd
000000c0: 00fe 703d 667b 293d 1fe4 bc3d 9324 2ebd
000000d0: 37ee 003e cf87 0ebd bd92 d6ae 8da1 f2bd
000000e0: cb5c 5abd 383c f63d b8c6 06be 67f7 073d
000000f0: 3834 8a3d 89d4 d5bd 91b6 413d b01b 833d
00000100: 42c7 97b9 5359 e4bb 0862 0580 8093 0680
00000110: e69c 0580 346d 57bb 5459 0580 4a0f 9cbb
00000120: ee11 46a4 b92a efa2 0e84 0500 55ab 0580
00000130: 326e 0580 7edb 9cbb a5df 55bc 1a77 0580
00000140: 3c84 0580 9282 b8ba b40d e3ba 519e dfbb
00000150: 60de 0580 66d0 9ebb 7efa 40bc 5925 5cbc
00000160: c591 90bb 0261 0580 a625 16bc 60a5 0580
00000170: 5f59 0580 a1cf 27bc 37a8 e1b9 fb6c 0580
00000180: de7a b7bb 6e76 20bc 0056 c9bb b89f 0580
00000190: de18 4fbb 6a6b 0500 5e7c 0580 7272 3fbb
000001a0: 53fb 0500 ef62 93b7 0771 0500 a3c6 0580
000001b0: 34a7 eebb 50bc 08bc e366 0500 cbca 0580
000001c0: af8f 54bc 7781 0580 6d54 18bc a801 9abb
000001d0: 2065 00bc 008b 06bc b55c 0580 9264 0500
000001e0: f862 d4bb 6765 38bc 65af 0580 f471 0580
000001f0: 0abf e1b9 4861 0580 6c1e 0680 8307 69ba
00000200: 4a2a 823d 6c2b 41be 52eb 7bbd 188f 5f3a
00000210: 0c04 ef3d 7a3a a3bd e106 573d 7e8e fdbc
00000220: 4156 fe3d 0c41 0fbd 77f5 50be c16d dd3c
00000230: 00f5 f1bc bb09 5f3c 18a8 09bc 41d4 b2bc
00000240: f20f bb3e 59f8 cb3e fa9d 93bb a200 9fbd
00000250: db54 d7bd 0b22 c3bc 8552 00bd 8457 503d
00000260: 459f 07bd e0d3 7fbd f6dd 75bd 4e78 0500
00000270: fffd 743c bf9d 333d 4cad 973d 0112 f4bc
00000280: 48ad a5bd 289a 81bd d6ad abbd 53a5 9c3c
00000290: 5df0 f2bd 7800 39bb 722e adbc 9d9e 223d
000002a0: ce9f cdbc 9905 57be bf24 383e ed11 503c
000002b0: d25c 853c d72e c1bd 1f80 0500 e093 3d3e
000002c0: afb2 fe3d ed3d d3bd e6e4 a33c c8dc b1be
000002d0: c3bd 573d a6ff 1d3e f3a8 a49d a2f5 49bc
000002e0: 30d9 a0bd 8ba3 92bd 7392 aabd 3939 9dbd
000002f0: b438 b5bd c34b 5fbd ee1f 9cb9 afc6 08bd
00000300: 4343 f13d 62e0 2dbd 56e8 163e 06c1 7f3b
00000310: baf8 10be c354 8e3b 67ac 72bd b8b8 993d
00000320: f44f 513e e60a 463d e15e 073e 7322 e53c
00000330: c3fe f1bc 5238 333e e38e fd3d 0557 c6bc
00000340: e6ff 69bd 24e6 0cbe b07b ef3d c780 d1bd
00000350: aba1 90bd 8363 04be 2b59 c23d 556c 173d
00000360: 8452 7ebd 07f9 183d a9a4 8c3b b7e1 7704
00000370: 5c6c 70bc 1160 f73d 92fe 0bbd 463e f4bc
00000380: 1eb7 c43c f1de 393c 3a5a c1bd 4b38 213b
00000390: 48b2 c23b 1d3a f83a dac5 d7bc b5d8 103e
000003a0: 4b4d cebc 0052 123e 441d 0a3e f9b4 3c3c
000003b0: 9e7c 9f3c 467b d6bc fe5c 0500 1418 dabb
000003c0: 488a 29bc 09a5 603a a4ea f33d 00a8 84bc
000003d0: fbd1 033e d2a2 86bd 67dc bab0 290f fcbd
000003e0: f77e 7e3c 2eed 783d 2120 04be 3579 163d
000003f0: 2881 183e 2048 bdbd f27f 0d3e bff8 f2bb
-0.12340694 -0.17516918 0.2385293 0.0026928082 -0.12575017 0.053979658 0.015256988 -0.037901685
-0.05447767 0.14140382 0.06898361 0.027858242 -0.029496597 0.021607062 -0.1060436 -0.023815807
-0.074277304 0.011952097 0.0102063725 -0.11127468 -0.11188485 -0.07860792 0.06683905 -0.005742354
0.054825474 0.081809245 0.050854776 4.97109e-40 -0.022682922 -0.053936984 0.053825825 -0.02981214
0.092655994 0.054341473 -0.15711118 0.0028255882 -0.0061198585 0.011960852 0.10026086 -0.107140206
-0.02524379 0.11559224 0.02542466 0.010717759 0.08577438 -0.05675095 4.99155e-40 -0.07271528
0.058835983 0.041377448 0.09223198 -0.04251535 0.12590872 -0.034797486 -9.757659e-11 -0.118472196
-0.05331115 0.120232046 -0.13161743 0.033194926 0.06748241 -0.104409285 0.04729325 0.06401765
-0.00028949423 -0.006968656 -4.94344e-40 -6.03926e-40 -5.15462e-40 -0.0032871487 -4.91222e-40 -0.004762565
-4.2949593e-17 -6.4826314e-18 5.0655e-40 -5.2064e-40 -4.98708e-40 -0.0047869077 -0.013053809 -5.01903e-40
-5.06614e-40 -0.0014076999 -0.001732281 -0.0068242927 -5.3895e-40 -0.0048466204 -0.011778472 -0.013436639
-0.0044119083 -4.93977e-40 -0.0091642495 -5.18503e-40 -4.91238e-40 -0.010242374 -0.00043040674 -4.98272e-40
-0.0055993637 -0.009793861 -0.006144285 -5.16474e-40 -0.0031600515 4.9771e-40 -5.03792e-40 -0.0029212502
5.49336e-40 -1.7569835e-05 4.99724e-40 -5.30435e-40 -0.0072831158 -0.008345678 4.96086e-40 -5.31926e-40
-0.01297371 -5.05621e-40 -0.009297472 -0.0046999045 -0.00783661 -0.008211851 -4.92434e-40 4.95255e-40
-0.0064815246 -0.011254645 -5.22097e-40 -5.00056e-40 -0.0004305768 -4.94075e-40 -5.61926e-40 -0.0008889364
0.06355722 -0.1886422 -0.061503716 0.00085280975 0.11670694 -0.07970138 0.052496795 -0.030951735
0.124187954 -0.034974143 -0.20406137 0.027029874 -0.02953577 0.01361316 -0.008401893 -0.021829726
0.36535603 0.39837912 -0.0045049163 -0.077637926 -0.10514232 -0.023819944 -0.031328697 0.05086471
-0.033110876 -0.06245792 -0.06002613 5.02335e-40 0.0149531355 0.04385161 0.07406101 -0.029793741
-0.080896914 -0.06328231 -0.08382766 0.019121801 -0.11862252 -0.002822904 -0.02114031 0.039702047
-0.025100615 -0.20998229 0.17982768 0.012699586 0.016279612 -0.09432762 5.05139e-40 0.18513441
0.12436425 -0.10314546 0.020006608 -0.34738755 0.052671205 0.15429553 -4.3585128e-21 -0.01232663
-0.07853925 -0.071600996 -0.08328714 -0.0767693 -0.08848706 -0.05451561 -0.00029778428 -0.033392604
0.11780407 -0.042450316 0.14737067 0.0039024963 -0.14157382 0.0043436005 -0.059246447 0.075059354
0.20440656 0.048350237 0.13219787 0.027970528 -0.029540425 0.17501953 0.12380769 -0.024211416
-0.05712881 -0.13759667 0.116935134 -0.102296405 -0.07062086 -0.12928586 0.09489664 0.036968548
-0.06209041 0.037346866 0.00429209 2.9138354e-36 -0.014674272 0.1207887 -0.034178324 -0.02981485
0.024013098 0.011344657 -0.094410375 0.0024600204 0.005941663 0.0018938218 -0.02633946 0.14145167
-0.02518334 0.14289093 0.13487726 0.011517757 0.019468602 -0.026181828 4.92537e-40 -0.0066557024
-0.01034791 0.0008569514 0.119099885 -0.01619339 0.1287307 -0.06574024 -1.3595923e-09 -0.12307579
0.0155332 0.060773067 -0.12902881 0.036736686 0.14893019 -0.092422724 0.13818339 -0.0074149068

module.model.2.bias f4 [64]
00000000: e3ad 3ebd ada9 1c01 9d61 3c3d df78 a0bd
00000010: 1e87 5b3d b9cd 5f3d 504e 86b5 f740 993d
00000020: 9ed0 b8bd 988b 12bb d05c abbc 3d3d a73c
00000030: 89e3 29bd 85d9 afbd 0bcf 10be 7e10 473c
00000040: d198 f8bc 789c 39b5 96d0 ef3d e5d8 97bd
00000050: e2c0 a9bd 9c05 0480 d65b c43d 44e0 219a
00000060: aaf3 97bd 1e12 45b3 7757 8fbd fc70 55bc
00000070: a987 84bd 37a2 b73d 5144 9280 a632 50bc
00000080: bcf1 febd d98c fabb 7b4b 593c dc3e cebd
00000090: 3a7b 223a 4450 8f3d 7d4e 04bc e104 1fbb
000000a0: 4190 a7b9 2255 97bc 7920 0c3e 3df4 423d
000000b0: 53ca b13d f11d b6bd f868 24bd 5111 55bd
000000c0: a8c7 5c3d 0f47 a1bc 98dc 3ebd 8737 163d
000000d0: 37c4 9f3c 8bf2 193b 014f 323d b111 7d3d
000000e0: ec61 b5bc 84be 87bb c942 173d 9497 373d
000000f0: e552 adbd 8f41 9ebd f044 8cbd ebc8 99bd
-0.04655255 2.877441e-38 0.04599153 -0.07835554 0.053595655 0.05463955 -1.000657e-06 0.07483094
-0.090241656 -0.0022361036 -0.02091828 0.020414943 -0.04147676 -0.085864104 -0.1414148 0.012149928
-0.030346306 -6.914556e-07 0.117097065 -0.07414416 -0.082887426 -3.69354e-40 0.09587829 -3.347518e-23
-0.07419522 -4.5884114e-08 -0.069991045 -0.013027426 -0.064711876 0.08966487 -1.343249e-38 -0.012707388
-0.12448451 -0.007646185 0.013262625 -0.10070583 0.0006198172 0.06997731 -0.008075354 -0.0024264383
-0.000319602 -0.018473212 0.13684262 0.047596205 0.086811684 -0.088924296 -0.04013917 -0.052018467
0.053901345 -0.019687204 -0.046597093 0.03667405 0.019502742 0.0023490514 0.043532375 0.06178445
-0.02214142 -0.0041425843 0.036928926 0.04482229 -0.084630765 -0.07727348 -0.06849086 -0.07509025

module.model.4.weight f4 [1, 64]
00000000: 8d36 9abd 4296 0500 1d89 24bd 41fc a9bd
00000010: 941c 053e ba6f 433e f2e6 92bc 6d2c 74bb
00000020: f147 673d fbf0 4b3b 722a 32bc 55dc e5bd
00000030: 7188 e2bd a5a0 7dbd e185 31bd 7466 cebd
00000040: 11a3 f9bc bcf2 0037 40ac bd3d 3c51 723a
00000050: 76fa 1fbc 1bed a3bc 32e3 e6bd cff0 95ba
00000060: cdc1 873d 24ae 7aba cb22 d63d bdc7 db3c
00000070: 99e0 89bd fab7 563e 5255 a9bc cabe 72bd
00000080: 721e 5dbd 0935 083d a9fc a1bd 293d 47bd
00000090: 3356 893b ae5a 073e 0ee1 2f3a edd1 783b
000000a0: ad83 0a3b 4aab 6cbd 7caa a73d c9d9 063e
000000b0: f076 44bd 1ba1 863d cfcb c83c fe84 78bd
000000c0: 6685 a43d a0af bf3d 3d35 c1bc 98ab fcbc
000000d0: 549c c9bb aca5 28be bc9a 3f3d 1fae 0fbe
000000e0: 5b1f e73d 3298 293d 7eef 32bd d3ca b13d
000000f0: 73bd 3fbd e58e 423d e64b ccbd c391 9abd
-0.07529936 5.1308e-40 -0.040169824 -0.08300067 0.12999183 0.19085589 -0.017932389 -0.0037257925
0.056465093 0.0031118977 -0.010874378 -0.112236656 -0.110611804 -0.06192078 -0.043340567 -0.10078135
-0.030473264 7.6859105e-06 0.0926137 0.0009243672 -0.009764304 -0.020010522 -0.11273803 -0.0011439564
0.066287614 -0.0009562692 0.10455855 0.026828641 -0.06732292 0.20968619 -0.020670567 -0.059263982
-0.053984113 0.033253703 -0.07909519 -0.04864231 0.004191184 0.13218185 0.0006709256 0.0037966922
0.0021135614 -0.05778054 0.08186814 0.13169016 -0.04796499 0.06573697 0.024511246 -0.060673706
0.08033256 0.0935967 -0.023584956 -0.030843541 -0.006152669 -0.16469449 0.046778426 -0.14031266
0.112852775 0.04140491 -0.04368543 0.08681264 -0.046811532 0.047499556 -0.09975414 -0.07547333
